placement_ispd18test3.pt (torch, 297717 bytes, 14 tensors)

weight f4 [64, 1043]
000000 26 c9 f6 bc 6b 9f 56 bd 6b f5 94 bd 3e 41 90 bd
       -0.030125212 -0.052398127 -0.07273372 -0.07043694
000010 dc e2 24 3c 10 78 fd bc 43 47 fa bd 31 2a 0a be
       0.010063853 -0.03094104 -0.12220623 -0.13492657
000020 02 2b b1 bd 84 35 bb bc a1 82 04 be 6b df a0 3d
       -0.08650781 -0.022852667 -0.12940456 0.078551136
000030 33 6c 5b bd 48 c7 30 bd 70 fb dc bc 14 04 8b bc
       -0.053569984 -0.0431588 -0.026975363 -0.016969718
000040 91 d2 14 bd 2b 4f 2d bc 96 93 44 bd 83 6c f2 3d
       -0.036333624 -0.010577957 -0.04799231 0.11837103
000050 c2 32 ba 3d 2c b7 d5 3c ea 4a 5f 3d 78 f3 02 3e
       0.090917125 0.02608832 0.054514803 0.12788188
000060 55 f1 fc 3d 68 2f 8a 3d 29 e3 36 bd cd 83 cc 3d
       0.12350718 0.06747323 -0.04465023 0.099860765
000070 06 1c 83 3d ec 9d 7d bc 9c 70 4d 3d 82 4e 5b 3d
       0.064018294 -0.015479546 0.05015622 0.053541668
000080 b5 42 9e 3d 6e 86 ae 3d 9c 0a 52 3c d5 23 af 3d
       0.07727567 0.08521734 0.012819912 0.08551756
000090 36 92 4d 3d 1b 45 b8 3d 93 81 ca 3d 39 e3 4e 3d
       0.050188266 0.08997556 0.098879956 0.050509665
0000a0 d6 2b 05 3e 4b 29 c8 bc a2 5b 8e 3d 3c eb 82 bc
       0.13005003 -0.024433753 0.06951071 -0.01598131
0000b0 d2 79 15 3d a4 0f 58 3d a4 35 72 3d a4 51 88 3d
       0.03649313 0.05274929 0.059133187 0.06656197
0000c0 91 49 e1 3d 2c 98 83 3d 9d b7 89 bd b4 f7 06 3e
       0.1100036 0.06425509 -0.067244746 0.13180429
0000d0 53 e4 df 3d 00 58 23 3e 0b 30 9a 3d 8c 9c 80 bc
       0.10932221 0.15951538 0.07528695 -0.015699647
0000e0 3f 40 67 3d e8 ea 85 3d 67 8d a0 3d fa ff 2f 3d
       0.056457754 0.065389454 0.0783947 0.042968728
0000f0 2d 7c f9 3d fe d3 76 3d 39 c9 09 3e 1e 12 4b 3d
       0.12181888 0.060260765 0.13455667 0.049577825
000100 48 0f 73 3d 9d 02 c2 3d 01 a0 09 bd 57 65 c3 3b
       0.059340745 0.09473155 -0.033599857 0.0059630084
000110 38 a7 2d 3b fb 36 5c 3d 69 59 ce 3d c7 16 03 3e
       0.0026497375 0.05376337 0.100756474 0.12801658
000120 a4 36 bc 3d de af 87 3d de 13 33 3d 8e 81 46 3d
       0.09190109 0.06625341 0.04372012 0.048463397
000130 74 98 4d 3c e1 d0 d0 3d 6d 48 f5 3d 00 06 83 3d
       0.012548555 0.101960905 0.11976705 0.06397629
000140 d5 90 a4 39 c8 c3 6f 3d 87 64 0c 3d 04 4d 91 bc
       0.00031388426 0.05853632 0.034275558 -0.01773692
000150 43 c6 ea 3d d9 9c dd 3d 69 75 8d 3c 90 c0 a7 bc
       0.11463597 0.10820932 0.0172679 -0.020477563
000160 6c 66 39 3c 13 c0 3e 3d 67 63 bc 3c b0 ef f9 3c
       0.011315923 0.046569895 0.022996617 0.0305098
000170 a5 20 0d 3d e6 fa a5 3c ba 17 12 3d 1a 3f 04 3e
       0.03445496 0.02026124 0.03566716 0.12914696
000180 6c d4 64 3d 8d 93 00 3d 1a 29 c5 bd ca 58 a9 bd
       0.055866644 0.031390715 -0.0962698 -0.08268888
000190 1b 63 63 bd b4 66 96 3d dd 3d d4 3d 31 8a 85 3d
       -0.055514436 0.07343808 0.10363362 0.065204985
0001a0 0e 75 0f 3e ec e0 dc 3c e8 7a 90 3c 57 31 06 3d
       0.14009497 0.02696272 0.017636731 0.032761898
0001b0 36 2a 73 3d 15 ec d0 3d 56 a2 a6 3d e4 2a be 3b
       0.059366427 0.10201279 0.08136432 0.005803453
0001c0 66 4c 25 3d ad 1f 56 3d 3e 8a 05 3d 62 92 82 3c
       0.040356062 0.052276302 0.03260254 0.015938941
0001d0 06 2e 05 3e 29 6b 01 3e 03 b9 a3 3d d7 54 da 3d
       0.13005838 0.12638535 0.079942726 0.10660713
0001e0 d0 99 5e 3b 47 2c d7 3d 51 0c 9e 3d 92 3f b1 3c
       0.003396619 0.10506492 0.07717193 0.021636758
0001f0 ad 92 ad 3d d5 14 bd 3d 23 c8 7b bb 58 f0 86 3d
       0.08475242 0.09232489 -0.0038418851 0.06588811
000200 82 09 18 3d f0 10 d7 3c 34 c2 bd bd 8c 39 cc 3d
       0.037118442 0.026253194 -0.09265557 0.09971914
000210 c5 84 5d bd 70 ac fd 3c d9 1f 0a 3e b4 f9 db 3c
       -0.054081697 0.030966014 0.13488711 0.026852466
000220 51 f0 b9 3d da 4e ac 3d 85 2e 85 3d d9 7e a7 3d
       0.0907904 0.08413477 0.065030135 0.08178491
000230 83 10 29 3c f5 d8 a6 3d a1 e6 89 3d f6 91 ac bc
       0.010318878 0.0814685 0.06733442 -0.021065693
000240 2f cb 0e 3c 92 5f b0 3c 10 55 3e 3d fb 06 bf 3c
       0.008715435 0.021529946 0.04646784 0.023318758
000250 0f 3f 40 3d 11 93 93 3d a0 7f 28 3d 13 08 c5 3d
       0.046935137 0.07205785 0.041137338 0.09620681
000260 ef c4 81 3d d4 ec e7 3a d9 36 82 3d 98 7b d9 3c
       0.0633639 0.0017694482 0.063581176 0.026548192
000270 f7 06 dd 3d 5e a2 59 3d 21 56 80 3c 8b aa 97 3d
       0.10792344 0.05313336 0.01566607 0.07405575
000280 29 2f c8 3d 5e e1 9e 3c 04 b6 89 bb 75 31 aa 3c
       0.0977462 0.019394573 -0.004202606 0.020775536
000290 d5 46 83 bd ed 8a 96 3d 9e 36 0e 3e 46 30 3d 3d
       -0.064099945 0.07350717 0.13888022 0.046188615
0002a0 06 e8 2f 3d 91 09 2f 3d 2b 57 96 3d c2 6d 0b 3e
       0.042945884 0.042733733 0.07340845 0.13616088
0002b0 a3 b4 61 3d 4b 6f eb 3d e1 ad a3 3d 09 43 e9 3d
       0.05510391 0.11495837 0.07992149 0.11389739
0002c0 75 bd c3 3d 81 4a a5 3d cf cd b2 3d 82 a9 4c 3d
       0.095576204 0.08070851 0.08730661 0.049966343
0002d0 a0 7e 6b 3d bf d4 b1 bc 9b eb a6 3d f2 d1 99 3d
       0.057493806 -0.02170789 0.08150407 0.07510747
0002e0 9f b3 99 bb c3 82 41 3d c1 c5 6e bb cb 7e 7b 3d
       -0.004690602 0.047243845 -0.0036433788 0.061400216
0002f0 0b a4 94 3d 41 90 0f 3d 2e ed b0 3d e4 56 92 3d
       0.07257851 0.03504968 0.086389884 0.07145479
000300 ae f1 b0 3c 2c d0 ae 3d 8b 80 42 3d 4c 6c 85 bc
       0.021599617 0.085357994 0.04748587 -0.016286992
000310 71 90 0b 3c 07 a3 e0 3d cd 9d 4d 3d 88 af 81 3d
       0.008518324 0.10968595 0.05019932 0.06332308
000320 49 01 0d 3c 4f 95 ef 3d 8c 1d cd ba 9f ca 89 3d
       0.008606263 0.116984 -0.0015649064 0.067281
000330 31 35 9b 3d 2a 14 96 3d a8 74 b8 3d 5a b2 fb 3c
       0.07578505 0.07328065 0.090066254 0.030724693
000340 19 3b bf 3d fc 2a e0 3c e4 95 db 3c 2f a7 8a 3d
       0.09337444 0.027364247 0.026804872 0.06770169
000350 2f b9 52 3d 07 4e 10 3d 1e 55 cb 3d 14 c8 fe 3d
       0.051446136 0.035230663 0.09928344 0.124405056
000360 6c aa 1e 3c 09 99 00 3d f7 91 2c 3d d0 48 5a 3d
       0.009684186 0.031395946 0.04213139 0.053292096
000370 7e 7f 83 3d 2d 55 8f 3c 44 a3 ae 3b 7c 37 7f 3d
       0.064208016 0.01749667 0.0053295214 0.062308773
000380 18 39 04 3e 10 74 33 3e 88 18 22 3e 99 1b a9 3d
       0.12912405 0.17524743 0.1582967 0.08257217
000390 4e c5 28 3b 19 3e d0 3d db b5 43 3d f9 37 a8 3d
       0.0025752368 0.10168094 0.047780853 0.08213801
0003a0 1c 06 ad 3d 83 e8 df 3d 0b 26 a4 3d 44 bd 69 3d
       0.08448431 0.1093302 0.080150686 0.057065263
0003b0 2a 2c 89 3d 62 0e 4a 3d 2f fc 6b 3d be 19 97 3d
       0.06697877 0.049330123 0.057613548 0.07377957
0003c0 bd eb 26 3d c6 31 8f 3d 12 9f 72 3d db 29 e4 3c
       0.04075216 0.069919154 0.059233733 0.02785199
0003d0 29 d7 98 3c 58 00 a5 3d 06 e3 99 3d b4 90 b2 3d
       0.018657284 0.08056706 0.075140044 0.08719006
0003e0 5f 1b 33 3c c5 fd 82 3d 75 2f bd 3d 6b cc 94 3d
       0.010931819 0.06396059 0.09237567 0.07265552
0003f0 03 85 d1 3d c8 df 8f ba c8 19 54 bc 99 f2 c9 3d
       0.10230448 -0.0010976726 -0.0129456 0.09860725

bias f4 [64]
000000 1e 06 78 bd 44 8e 51 bd 00 00 00 00 4f 0a fa bc
       -0.06055271 -0.051161066 0.0 -0.030522494
000010 46 fc 75 bd 43 fc 75 bd 45 fc 75 bd 2b c0 14 bd
       -0.06005504 -0.06005503 -0.060055036 -0.03631608
000020 f9 36 2b 3e 43 fc 75 bd 48 37 1a bd 51 31 0a be
       0.16720189 -0.06005503 -0.037650377 -0.13495375
000030 92 e0 6b 3c 96 e6 91 3e 43 fc 75 bd 42 fc 75 bd
       0.014396803 0.28496236 -0.06005503 -0.060055025
000040 ef 2c 53 bd 6b 18 71 3e 37 7d 44 3e 44 fc 75 bd
       -0.051556524 0.23544471 0.1918839 -0.060055032
000050 2f 78 54 3e a9 86 4f 3e cb d6 2d bd 99 18 0e 3d
       0.20748971 0.20266213 -0.04244117 0.034691427
000060 33 b1 63 bd 5f 07 0d bd 44 fc 75 bd 13 47 4e bd
       -0.055588912 -0.034430858 -0.060055032 -0.05036075
000070 44 fc 75 bd 2c be 74 3e 44 fc 75 bd 14 5d 29 bd
       -0.060055032 0.2390067 -0.060055032 -0.04134853
000080 43 fc 75 bd 7d 12 d3 bd d8 ab 43 3e cc 0a 1e bd
       -0.06005503 -0.10306261 0.19108522 -0.038584515
000090 7d 61 46 bd 5e 61 6f bd 75 dd 05 bd 45 5c 83 3e
       -0.048432816 -0.058442466 -0.0326819 0.25656334
0000a0 c9 39 63 3e 92 63 05 bd 00 00 00 00 fa 0c 9b bc
       0.22190012 -0.03256566 0.0 -0.018927086
0000b0 be 06 51 3e 44 fc 75 bd b7 2f 73 bd 45 fc 75 bd
       0.20412728 -0.060055032 -0.059371676 -0.060055036
0000c0 ff 49 de bc e3 03 5b bd 00 00 00 00 42 fc 75 bd
       -0.027134893 -0.053470504 0.0 -0.060055025
0000d0 6e aa 02 be 9f 88 14 bd 42 fc 75 bd f8 f2 3a bd
       -0.12760326 -0.036263105 -0.060055025 -0.04564187
0000e0 78 b9 99 bc 43 fc 75 bd 4d 8a b3 bd 29 a9 da bc
       -0.018765196 -0.06005503 -0.08766613 -0.02669199
0000f0 17 2f 20 bd 42 fc 75 bd d2 8e 11 bd bd 69 53 bd
       -0.03910741 -0.060055025 -0.035536595 -0.05161451

weight f4 [32, 64]
000000 df 97 23 be 9d 74 e1 3d fe 37 81 bd 35 45 62 be
       -0.15975903 0.1100857 -0.06309508 -0.22096713
000010 74 ea 50 bd 3c 8f ae bd 9a e3 4c 3d ff 2a 68 3c
       -0.051004842 -0.085234135 0.050021745 0.014170407
000020 89 f3 d0 3d 44 31 50 bd 47 73 2f 3c a5 3e 45 be
       0.10202701 -0.050828233 0.010708637 -0.19262178
000030 ca b8 74 be 5f 43 5a 3e 93 32 9f 3c ce e4 50 3e
       -0.23898616 0.21314763 0.019433295 0.20399782
000040 40 84 1d 3e cb 0d 49 be 68 35 31 3c 42 f1 9d 3d
       0.1538248 -0.19634168 0.010815956 0.07712032
000050 82 f2 86 be fc b4 83 3d db d0 8d 3c bd 32 a5 be
       -0.26356894 0.064310044 0.017311504 -0.32265273
000060 3b 9d ca bd b7 e0 ac 3c f9 55 67 be 07 35 33 be
       -0.098932706 0.021103246 -0.2259139 -0.17500697
000070 af 6e 9b bd a1 c8 83 be 95 d4 3f 3d a3 d1 1a 3e
       -0.075894706 -0.25739005 0.046833593 0.15119033
000080 54 31 ea bd 84 2b e1 bd d0 81 16 bc cd 65 a5 bd
       -0.1143519 -0.10994628 -0.009186223 -0.080760576
000090 36 25 b6 3d f5 f2 9b be 01 30 21 3d f8 84 a3 3d
       0.08893816 -0.304588 0.03935242 0.07984346
0000a0 72 df 77 be ce ce 78 be 7c 5e f4 3d 2a c6 44 3d
       -0.24206331 -0.2429764 0.11932084 0.048040546
0000b0 a1 ac 85 bc a7 08 2a 3e f6 25 c8 3b 68 91 25 be
       -0.016317667 0.16604863 0.006108041 -0.1616875
0000c0 ef 40 a1 3e 97 43 77 3d 6f 46 37 be da 07 c4 bd
       0.31494853 0.060367193 -0.17897962 -0.0957181
0000d0 b2 72 9c 3e 01 a6 06 3d 52 fc cc 3d 9c 28 24 3e
       0.30556256 0.032873157 0.10009064 0.16031116
0000e0 2d 78 3b bd d6 82 06 be cc fc 94 bd a6 5b 5a 3c
       -0.045768905 -0.13135847 -0.0727478 0.013327515
0000f0 87 59 83 bd 7e c9 80 be 92 b3 2a 3d 71 96 02 3d
       -0.0641356 -0.25153726 0.041675158 0.031881753
000100 ae 2a d3 bc b9 d5 7d 3e 19 75 28 be fe 87 97 3c
       -0.025777187 0.2478856 -0.16450919 0.018497463
000110 d3 eb 45 3d a1 42 63 be 60 03 8b 3d 79 1e 28 3e
       0.048320603 -0.22193386 0.06787753 0.16417874
000120 d4 a9 9b 3e 6c e5 3d 3b bf 7e 1e 3e 2f cc 32 3d
       0.30403006 0.0028975857 0.15478037 0.043651756
000130 ba 1f 0f 3c a7 46 0f be ee be 61 3d 32 5c 12 be
       0.008735592 -0.13991795 0.055113725 -0.14292982
000140 50 78 5f be ed 20 8b bc 5c c8 36 be 22 b8 1b 3d
       -0.2182324 -0.016983474 -0.17849869 0.0380174
000150 84 e6 c0 3d eb 10 53 3e e1 a1 ce 3e ff 45 75 be
       0.09418967 0.20611922 0.4035788 -0.23952483
000160 c6 38 26 3e 6f 00 95 bd 66 8e 9e 3e 86 f6 05 3d
       0.16232595 -0.07275473 0.30968016 0.032705806
000170 88 17 0e bd 88 b9 e7 3d 2f 9a 9a 3e 93 7c 33 3d
       -0.03469041 0.11314684 0.30195758 0.043819975
000180 65 2c 39 bd 12 80 1f be db 45 b5 bc f9 4d 88 3c
       -0.045208354 -0.15576199 -0.022128036 0.016638743
000190 33 f0 16 be 06 07 fe 3d 31 33 84 3e 35 b7 74 3e
       -0.14740066 0.12403683 0.25820306 0.23898013
0001a0 36 69 da 3d cc 9d 8e 3e ec f4 54 3e f3 f0 80 3d
       0.10664599 0.27854764 0.20796555 0.062959574
0001b0 b0 66 11 3e 97 e1 90 3e 90 ea 1d bc 8c 1d f7 3d
       0.14199328 0.2829711 -0.009638444 0.120661825
0001c0 e0 bb 57 be 76 26 a4 3d 7b 51 0a be a5 2b 3a be
       -0.21067762 0.08015148 -0.13507645 -0.18180712
0001d0 be ec ac bd 1b 1b d2 bd 8b 89 b0 bd f0 51 88 be
       -0.084435925 -0.10259076 -0.08619984 -0.26625013
0001e0 00 3d e1 bd f8 97 29 3e fe 02 7c be 16 0d c6 bd
       -0.10997963 0.16561878 -0.24610516 -0.09670465
0001f0 f5 de b6 3d 91 b3 bb 3e 45 70 31 3d 88 56 23 3d
       0.089292444 0.36660436 0.04331996 0.039877445
000200 d3 b0 e0 3c 77 5d 8d bd 7d 36 76 3d e2 52 d4 3d
       0.027428066 -0.06902593 0.060110558 0.10367371
000210 a9 02 99 3d 66 1b a5 bd 0c 62 82 be 80 e8 21 3d
       0.074712105 -0.080618665 -0.2546543 0.03952837
000220 7d 92 ab bd d0 97 d2 3d 86 b3 bc bd 8f 0a 03 bd
       -0.0837755 0.10282862 -0.09213929 -0.03199249
000230 e5 07 69 3e 96 e4 72 bd 45 c8 f2 3d 2f 70 1a 3e
       0.22756918 -0.059300028 0.11854605 0.15081857
000240 07 ec b8 3e db d8 fe 3d a8 83 c4 bc d2 bb a0 3e
       0.36117575 0.12443706 -0.02398856 0.31393296
000250 e7 03 65 be 65 c8 97 bd bd 53 cd 3e 17 33 1c be
       -0.2236477 -0.07411269 0.4010295 -0.15253864
000260 25 e5 57 3d 84 8c 50 3c fc 22 ca bc 78 37 22 3c
       0.052708764 0.012728814 -0.024674885 0.00990092
000270 b3 3a 30 3e 96 f3 a9 be c0 8a 06 bb 6a f1 8a bd
       0.17209892 -0.33193654 -0.0020529479 -0.06784327
000280 23 c6 ce 3d d6 fe ac bd 8c b1 8e be 88 48 1e bd
       0.10096385 -0.084470436 -0.27869833 -0.03864339
000290 14 04 91 3e 54 e0 b1 bd fb 93 68 3d df f2 02 be
       0.28323424 -0.08685365 0.05678175 -0.1278796
0002a0 07 4f 26 3e 34 4b 86 3d 22 d0 87 3e 5c 53 ff bc
       0.16241084 0.065573126 0.2652598 -0.031167679
0002b0 89 ca 4e bd 1a 70 aa bd 16 be b0 3d 6d 97 a2 bc
       -0.05048612 -0.08322163 0.08630006 -0.019847596
0002c0 44 09 02 3e 05 d4 51 3e fa fb 05 be 0d 12 ce bd
       0.12698847 0.20491035 -0.13084403 -0.10062037
0002d0 a3 44 ef 3d 9f 21 aa 3d de 32 75 3d b8 3c 94 3c
       0.11683013 0.08307194 0.059862964 0.01809536
0002e0 bc 29 e8 bd 9f 2c 7b bc 5e 17 0e bd d7 e4 8d bd
       -0.11336085 -0.015330463 -0.034690253 -0.06928413
0002f0 e7 c9 19 be e0 99 ee bd a8 6b 0a 3e bc 0f 02 3d
       -0.15018426 -0.11650443 0.1351763 0.031753287
000300 43 36 bd 3d 83 be 8e be af fd 39 be 5b 65 1c be
       0.09238865 -0.27879724 -0.18163179 -0.15273039
000310 be e9 20 be 2e 67 0b be c8 c5 2f 3d 4b b8 3b be
       -0.15714166 -0.13613579 0.04291323 -0.18332021
000320 7f 77 b4 3c 70 ec de bd 9f 89 86 bd 5e a6 50 be
       0.022029636 -0.108849406 -0.06569218 -0.20375964
000330 70 6c b6 bd f3 2a d4 3d 68 5f 13 bd 91 1a 05 bd
       -0.089074016 0.103597544 -0.03597966 -0.03249604
000340 3e 25 44 3d 1e 66 2b bd 87 bc cb bb 35 c2 31 3c
       0.04788708 -0.041845433 -0.0062175426 0.010849525
000350 9d a3 a6 bd 37 e9 cf 3c c9 c7 45 bd 66 06 78 be
       -0.081366755 0.02537976 -0.048286233 -0.24221191
000360 d5 fd 9d 3d 1e d4 6f 3e 6b 8b f7 3d 07 ce 4a be
       0.0771443 0.2342076 0.12087139 -0.19805156
000370 5f 59 1d 3d b4 c9 88 be fd 45 33 3d 35 f8 64 3e
       0.03841531 -0.26716387 0.043767918 0.22360308
000380 d1 93 65 ba 8e 50 1b 3e 66 31 bb bd 4e 32 54 3e
       -0.0008757683 0.15167448 -0.091402814 0.20722315
000390 d4 e3 b3 3d 2f 40 0f 3e c2 85 ae bd 82 14 9c 3d
       0.08783689 0.13989328 -0.08521606 0.07621099
0003a0 f6 f5 23 3d 8d e2 57 bd 30 46 1a 3e 9a 82 c3 3d
       0.04002949 -0.05270629 0.15065837 0.09546395
0003b0 a9 1c 64 3d 49 93 ba 3c 30 ec c6 3d e8 d5 d4 3d
       0.055691395 0.02277531 0.09713018 0.10392362
0003c0 39 60 f5 3d b2 2a 64 3e 47 26 d9 3d e9 9a 76 be
       0.11981244 0.22281912 0.10603004 -0.24082531
0003d0 85 e5 de bc 88 c6 45 bd 6c 9d 2a 3e af 6d c0 3d
       -0.027209053 -0.048285037 0.16661614 0.093959205
0003e0 96 13 5e 3d 61 ce 6f 3d 2c c5 92 3d 50 61 0a be
       0.054217897 0.058546428 0.07166514 -0.13513684
0003f0 8e e4 41 bd 93 1f e2 bc 03 42 80 bd 75 7d f0 bc
       -0.047337107 -0.027602946 -0.06262591 -0.029356698

bias f4 [32]
000000 58 5c d4 bd 8d c9 3b bd 55 ca 1c 3d 00 00 00 00
       -0.10369176 -0.04584651 0.038278896 0.0
000010 5c a9 56 3e 3c fc 75 3d 7e 2b 56 bd ae 1f 08 3e
       0.20963043 0.060055003 -0.05228757 0.13293335
000020 43 fc 75 bd f4 74 9c 3d ba 99 38 3d 00 00 00 00
       -0.06005503 0.076394945 0.04506848 0.0
000030 43 fc 75 bd d9 8e 44 3e fe 37 77 3e fe 10 6e 3e
       -0.06005503 0.19195117 0.24142453 0.2324867
000040 97 13 78 3e 22 c5 28 3e 6f 60 9d bd 9a 6f 51 bd
       0.24226223 0.1648145 -0.07684409 -0.051131822
000050 2f cb 3f bc 00 00 00 00 32 e1 8d bd 00 00 00 00
       -0.011706158 0.0 -0.06927718 0.0
000060 37 20 72 3e 9c 50 5a bd 16 fd 61 3e 83 d6 87 3e
       0.23645101 -0.05329953 0.22069201 0.26530847
000070 00 00 00 00 3a 56 1f bb 15 8e 28 bd 46 fc 75 bd
       0.0 -0.002431287 -0.041151125 -0.06005504

weight f4 [32, 16, 2, 2]
000000 73 38 44 3d 70 20 81 3b a2 b5 8c 3d c4 d3 19 be
       0.047905397 0.0039406344 0.06870581 -0.15022188
000010 60 0a f3 3b 8c 46 94 bd 48 2c 22 3e 74 58 9f 3d
       0.0074170083 -0.07240018 0.15837204 0.07780543
000020 77 88 8c bb d8 62 24 3d 78 b2 8e 3c 63 03 51 3d
       -0.004288729 0.040133327 0.017419085 0.05102862
000030 30 3f 54 3c 57 7b bb 3d 0e 5e be bd db 01 68 bd
       0.012954518 0.091543846 -0.09295283 -0.056642395
000040 a0 f7 f1 3b 1b cc f5 3d 6e fa 23 3e 7b f6 2f bd
       0.0073842555 0.12001821 0.160135 -0.04295967
000050 b6 c9 d6 bd 4e 43 bd bd 3d fb 1c bd c5 31 63 bd
       -0.10487692 -0.09241353 -0.038325537 -0.055467386
000060 d6 d4 71 3d 37 fa 9e 3d 06 47 95 bd b2 b2 38 3c
       0.059040867 0.077625684 -0.07288937 0.011273073
000070 f0 58 89 3d 0e ba b0 bd 22 7c f5 3d e1 de 10 bd
       0.067064166 -0.08629237 0.11986567 -0.035368804
000080 cc 4b ac bd c6 9e 4e 3d 6a 3b 99 3c ad ce 08 bd
       -0.084128946 0.050444387 0.018705089 -0.033400226
000090 30 9b 9c bd 4c 76 e7 bd b4 8e cd bd c4 74 4f 3b
       -0.07646787 -0.1130186 -0.10036984 0.003165529
0000a0 35 5b 7c 3d 30 85 f4 3b 83 c9 f9 3c 0e 47 f4 bc
       0.06161042 0.0074621662 0.030491596 -0.029819038
0000b0 89 4c 86 3d f6 e5 b9 3d c5 c2 15 bc 2c 90 df 3d
       0.06557567 0.09077065 -0.009140675 0.109161705
0000c0 f0 fb b5 bd 4a 30 ab bb 88 a2 96 3c d0 31 1d bd
       -0.08885944 -0.0052242624 0.018388048 -0.038377583
0000d0 5c b6 ed bd b8 aa 81 bc 06 85 2c 3d 0c 23 a3 bc
       -0.11607048 -0.015828475 0.04211905 -0.019914173
0000e0 84 a4 1b 3d c6 71 84 3d 9d 70 54 bd e0 b9 09 3d
       0.03799869 0.06467013 -0.05186521 0.03362453
0000f0 0f 8a ef 3c be f9 3a bd ae c5 d8 3d 60 5e 35 bd
       0.029240636 -0.04564833 0.105845794 -0.044279456
000100 76 b1 2a 3d f5 a8 40 3d 97 7e 10 be e4 72 e3 3c
       0.041673146 0.04703613 -0.1411079 0.027764745
000110 0d 9a 8c bd 78 ee 92 bd b1 39 ea bd 3d f0 47 3d
       -0.0686532 -0.071743906 -0.11436785 0.048813093
000120 a0 cf 51 bd 32 1f 89 3d 6b d9 b3 bc 02 1b f5 bc
       -0.051223397 0.06695403 -0.021954259 -0.029920105
000130 18 88 a9 3c 49 a0 fc 3d 11 1b 2c bd 32 e6 a4 3d
       0.020694777 0.123352595 -0.042018 0.08051719
000140 b7 a8 2e 3d 1b 99 79 bd 67 05 6c bd 59 16 d9 bc
       0.042641368 -0.06093703 -0.05762234 -0.026499914
000150 90 30 ee 3d 8c 67 af bd 81 c4 e5 3c ed 89 22 3e
       0.11630356 -0.08564672 0.028047802 0.15872927
000160 f6 99 d7 bc e7 a8 ff 3e 30 26 b5 bc 73 c8 e9 bd
       -0.026318531 0.4993355 -0.022112936 -0.11415186
000170 70 1b 94 3d 1f f6 14 3e 0d 34 b2 3d c4 04 63 3d
       0.07231796 0.14547013 0.08701334 0.055424467
000180 18 ec 44 bd b6 26 36 3e 7f 3b 80 bd c0 37 33 be
       -0.04807672 0.17788205 -0.06261348 -0.17501736
000190 bf 1f 76 bd 3c c7 99 bd e8 fc 79 bd 0d 8e ef bd
       -0.06008887 -0.07508704 -0.061032206 -0.11697016
0001a0 6f 54 09 3c 19 56 f0 3d 8f e2 18 be fe d9 88 bd
       0.008381947 0.11735172 -0.14930175 -0.06682204
0001b0 ce 9a c4 3c 89 1b 16 be c9 ba 8a 3c 41 0c 1c be
       0.023999598 -0.14658941 0.01693477 -0.1523905
0001c0 fa 7a 18 be ee c2 f1 3d 3d b0 db 3c 50 31 eb bd
       -0.14890662 0.11804758 0.026817435 -0.11484015
0001d0 3c 35 88 bd 3c 5d 3b bd 01 b8 40 b7 68 08 3b be
       -0.06650779 -0.045743212 -1.14869335e-05 -0.18264925
0001e0 b6 0c 95 3d fa 5c 36 3d 5f bb 7a 3d 50 9d 3b 3d
       0.07277815 0.044522263 0.061213847 0.04580432
0001f0 21 53 b4 3d 47 1d 30 bd 9c 58 95 bd ec c4 93 bd
       0.08804918 -0.04299667 -0.072922915 -0.07215294
000200 00 3a b9 bb c8 8a d8 3c e9 2e 13 be c0 3d 99 bc
       -0.005652666 0.026433364 -0.14373364 -0.018706203
000210 24 8e 66 bd 00 c8 43 3b 7f d0 02 be d4 40 f1 3d
       -0.0562879 0.0029873848 -0.12774847 0.11779943
000220 1c d5 6c bd 60 21 66 3c e0 49 a2 bc 50 88 54 3e
       -0.057820424 0.014046043 -0.019810617 0.20755124
000230 8e 7f ce bd 64 b4 91 bc ec 89 d8 3d 78 49 80 3d
       -0.10082923 -0.017786212 0.105731815 0.06264013
000240 e8 23 83 bc ad a6 42 3d f0 2b 87 bd fe 32 9f 3d
       -0.016008332 0.047522236 -0.06600177 0.07773398
000250 c0 e7 a5 bb 34 a4 8b bd 24 1d ec 3b c6 a2 98 3e
       -0.005063027 -0.06818429 0.0072056223 0.29811686
000260 3e ac b5 bd 76 71 0e bd 20 61 c4 3c f0 ab 9e 3d
       -0.08870743 -0.034776174 0.023972094 0.07747638
000270 88 08 22 3d 53 6a 33 ba d8 85 8b 3c 2c 31 cd bd
       0.039558917 -0.00068441516 0.017031595 -0.100191444
000280 b0 ec 7d 3c 8c 7f 54 3d 02 c0 99 3d 98 05 69 bd
       0.015498325 0.05187945 0.07507326 -0.0568901
000290 2b 9d 42 3e 2c 5f 55 bd f6 99 85 3d 70 e1 47 3c
       0.19005267 -0.052092716 0.06523506 0.012199745
0002a0 7b 45 3f 3e a4 ec 74 bd 22 79 6d bd a1 21 13 3e
       0.18678848 -0.05979599 -0.05797685 0.14368297
0002b0 ba 38 d9 3d 6c 71 f9 bd d2 92 fb bd 28 59 f5 bc
       0.10606523 -0.12179837 -0.12283863 -0.02994974
0002c0 84 09 d1 bd 6e 52 89 3d d4 db fe 3d 42 58 cb 3d
       -0.10206893 0.06705175 0.12444273 0.09928943
0002d0 cc 45 3a bd e0 04 da bc e0 91 cf bc 1c de d5 bd
       -0.04547672 -0.026613653 -0.025338113 -0.104427546
0002e0 f4 49 b7 3d e1 02 1c be d0 4f ea bc 10 c0 62 bd
       0.08949652 -0.15235473 -0.02860251 -0.055358946
0002f0 00 54 18 bb a1 0a 24 bd 7c 15 83 3d 3a 80 95 3d
       -0.0023243427 -0.0400492 0.06400582 0.07299848
000300 bc e1 09 3d 2a f7 fb bd e0 a5 32 bd 40 1a 71 bb
       0.033662543 -0.12303002 -0.043615222 -0.0036789328
000310 52 5f e3 3d a0 b0 55 bc 4c 55 a0 bd 0c 51 a1 3d
       0.11102165 -0.013042599 -0.07828769 0.078767866
000320 30 8e bf 3c 50 4f 0c 3c 50 99 b3 3c 8e 97 d0 3d
       0.02338323 0.008563831 0.021923691 0.10185157
000330 a8 02 32 3d 70 c4 dc bc 20 e4 b7 3d 88 3a 22 3d
       0.043459564 -0.026949137 0.08979058 0.0396066
000340 a0 36 f7 3c ac c9 bf 3d 8c 1f 38 bd b8 5d 8a bc
       0.030177414 0.09364638 -0.04495196 -0.016890392
000350 0c 10 4c bd 46 9e db bd c2 00 95 bd e6 53 b0 3d
       -0.04981999 -0.10723548 -0.07275535 0.08609752
000360 c0 af 6f 3d e0 4a ae 3d e2 df b1 bd 98 da 88 bd
       0.058517218 0.08510375 -0.086852804 -0.066823184
000370 20 c7 f2 bc f8 8e fa bc c0 1d d4 3b fa 4b 91 3d
       -0.029635966 -0.030585751 0.006473273 0.070945695
000380 2c 99 4e 3d d0 97 83 bc 40 85 8b bc 84 bc a8 3d
       0.050439045 -0.0160636 -0.017031312 0.082390815
000390 0a 6c f3 3d 5e 12 86 bd d2 53 b1 3d d0 01 14 3d
       0.11885841 -0.06546472 0.086585656 0.03613454
0003a0 30 e1 4a bd 90 41 57 3d 90 78 44 3d 96 30 fe 3d
       -0.04953116 0.05255276 0.04796654 0.12411611
0003b0 54 c9 5c bd 90 35 be bd fc ec 2d bd 52 c6 cd 3d
       -0.05390294 -0.0928756 -0.042462334 0.10047592
0003c0 80 24 4c 3c 0a 3c b1 3d 20 06 c2 bd ac d4 2b 3d
       0.012459874 0.0865403 -0.094738245 0.041950867
0003d0 00 8c a8 bd da 20 96 bd 64 ed cf bd 60 d0 8e 3c
       -0.08229828 -0.07330485 -0.101527005 0.017433345
0003e0 48 09 2d 3d e2 33 80 bd 48 e6 4b 3d 42 3e d5 bd
       0.04224518 -0.06259896 0.04978016 -0.10412265
0003f0 5e 25 94 3d 54 d9 b3 bd cc 3e c6 3d c2 21 92 3d
       0.0723369 -0.087816864 0.09679946 0.07135345

bias f4 [16]
000000 09 de de bb 52 c0 0d 3d de ac 39 3e 39 d3 31 3e
       -0.006801371 0.03460724 0.1813235 0.17365731
000010 bb bd 2d 3e 36 9b 85 3e 6b 92 a1 bc 7a 34 0e bc
       0.16966908 0.2609498 -0.019723138 -0.008679504
000020 29 d0 48 3e 92 68 1e be 5c 01 7b 3e 6d ce c6 bc
       0.19610657 -0.15469578 0.24512237 -0.024268353
000030 15 23 1c bc e7 90 79 3d da 73 15 3e f0 a2 ce 3d
       -0.009529849 0.060929205 0.14594975 0.100896716

weight f4 [16, 8, 2, 2]
000000 f0 ee 04 be b6 c7 3b 3d ba ef 8a 3e 01 50 39 be
       -0.12981772 0.045844756 0.27136022 -0.18096925
000010 f5 ed 93 bd 51 8d 27 be ff 1d 1a bd 12 aa b9 be
       -0.07223121 -0.16362502 -0.037626263 -0.36262566
000020 f7 a9 7f bd 27 89 b0 bd b0 fa 80 3e f8 aa 67 be
       -0.06241795 -0.0861991 0.2519126 -0.22623813
000030 32 c6 de bd 23 4c 80 3d 21 0d b5 3c 82 b5 4d 3c
       -0.108776465 0.06264522 0.022100987 0.012555482
000040 69 5b 4c be ab 9a 12 3e 12 ec 99 bd a7 8b 0d 3f
       -0.19956745 0.14316814 -0.0751573 0.5529122
000050 20 82 26 3d d6 49 a5 bd 56 51 a3 bd c2 c5 e9 3d
       0.04065144 -0.08070724 -0.07974498 0.114146724
000060 e7 cd 17 3d 51 70 0f be eb 0a 88 3c 59 48 c9 3d
       0.0370616 -0.14007689 0.016606769 0.09828252
000070 e2 51 4e 3d 22 d4 0e 3d 57 0e c6 3c ea cd f7 3c
       0.05037106 0.034870274 0.02417676 0.030249555
000080 4d 14 23 be 42 3a ec bb e7 dd c2 3e af 01 89 3d
       -0.15925713 -0.0072090933 0.38059923 0.06689774
000090 1f 1d 3b be 00 dd 14 bb b0 7d b3 3d c7 b6 8f be
       -0.18272828 -0.0022714734 0.08764207 -0.28069136
0000a0 80 71 1b bd fa f5 e1 3c b9 d8 7f 3e d7 ae 8b bd
       -0.03795004 0.027583111 0.24985017 -0.068204574
0000b0 3c af 63 be b0 ec 62 bd 7b 51 c3 3c 33 d7 07 3e
       -0.22234815 -0.055401504 0.023842564 0.13265686
0000c0 70 e7 ac bd 28 2c 69 be 37 fd a3 bd fe 53 c2 3e
       -0.08442581 -0.2277075 -0.08007281 0.37954706
0000d0 34 12 90 3c 5a 73 ca ba db 26 07 bd 56 09 f1 bd
       0.017586805 -0.0015445754 -0.03299604 -0.11769359
0000e0 ec fc 23 bd a4 81 15 3d 71 28 19 be 3c bb f2 bd
       -0.040036127 0.036500588 -0.14956833 -0.118521184
0000f0 86 06 34 be ee eb 33 be c9 3c 3e be ae 63 5c be
       -0.17580613 -0.17570469 -0.18577875 -0.215224
000100 80 6d 9a 3e dd b2 f5 bd d4 f4 db 3d 46 d6 3a be
       0.30161667 -0.11997006 0.10740057 -0.18245801
000110 be d6 d5 bd 7c b7 1f bd a7 08 39 be a3 35 58 bd
       -0.104413494 -0.038993344 -0.18069707 -0.052785527
000120 a4 b3 8e 3e 2c b6 3c bd 2f 45 9e bc a7 ac c4 3d
       0.2787143 -0.04607217 -0.019320099 0.09603243
000130 ae 1c 2f be 92 b5 f3 3d 56 64 08 3e eb a3 ce 3c
       -0.17100784 0.11899866 0.13319525 0.025224647
000140 4d 1d 6e 3e f1 a2 95 bc 02 cd 34 3d 93 1c 8d bd
       0.23253365 -0.018266173 0.044140823 -0.06890216
000150 fd 9e 91 3e 7f fa 73 be b9 09 99 bc 38 92 cb bd
       0.2844161 -0.23826025 -0.018681394 -0.099399984
000160 72 e5 c6 bd e6 bd 48 3e f8 af 1f bc bb 73 31 be
       -0.09711732 0.1960369 -0.009746544 -0.17329304
000170 2a a8 e5 3e 93 8b 05 3e 9d 1c 35 be cf c4 95 bd
       0.44854861 0.13041525 -0.17686696 -0.07312929
000180 9f cf 24 be 5c 8e b2 bd a2 8b 5b 3b 38 cd 46 bd
       -0.16094826 -0.08718559 0.0033499976 -0.048535556
000190 3d 57 0f be bc e8 07 3e 8f 44 05 3d 3a 99 f1 3e
       -0.13998123 0.13272375 0.032536086 0.47187215
0001a0 dd ba e1 3d f9 58 0e 3d 12 80 c3 3d 90 75 bc 3c
       0.110219695 0.03475282 0.09545912 0.023005277
0001b0 74 cd e4 bd bf 28 08 be f2 ce 8d bb f3 9d d1 bc
       -0.111719996 -0.13296793 -0.0043276483 -0.025588011
0001c0 29 db 28 be 9e 2f 3a be ea ca e2 bd 70 7b 93 3e
       -0.16489853 -0.18182227 -0.11073859 0.28805113
0001d0 07 03 c4 bc b8 53 bb 3c 4c cb 85 3d 9d 06 1a be
       -0.023927225 0.022867069 0.065329164 -0.15041585
0001e0 2e fd 9d bd 83 fd c8 3c f2 92 60 bd e1 12 90 bd
       -0.07714306 0.024534946 -0.054827638 -0.07034851
0001f0 ff 30 6e 3e 49 80 2a be 2d 70 07 3e 2f 73 83 bc
       0.23260878 -0.166505 0.13226385 -0.016046135
000200 37 4f ce be 9a a9 98 bd 10 c8 74 3e cd aa 1e 3c
       -0.4029481 -0.07454224 0.23904443 0.009684277
000210 e2 af bc bd e4 2f 9e 3d 5f 4b 15 be 3a 66 9b 3e
       -0.092132345 0.07723978 -0.14579533 0.3035143
000220 0c fb fd bc 5a 91 be bd c0 e6 11 3e 8b 49 7b be
       -0.031003498 -0.09305067 0.1424818 -0.24539773
000230 6d d7 ce bd 9b 0d b8 bd cd 7e f7 bd 33 c3 81 be
       -0.10099683 -0.0898697 -0.12084732 -0.25344238
000240 e7 36 04 bd 9f 07 f3 bd 11 77 7d be db de 09 3f
       -0.03227892 -0.11866688 -0.24752451 0.53855675
000250 8b 01 e6 3d 46 d6 95 3c 5d 10 4e 3d ac 04 a3 be
       0.11230763 0.01829065 0.050308574 -0.31839502
000260 a0 42 c6 bc bd 5d 92 be a1 07 01 3e 51 7c d5 bd
       -0.024201691 -0.28587142 0.12600566 -0.10424102
000270 95 3d 2d bd b1 b5 dc 3c 09 cd 94 3c 63 8c d2 3c
       -0.042295057 0.026942106 0.018164175 0.025701707
000280 7f b9 11 3e dd 17 4b 3d d7 d8 13 3e 2f cd fa bd
       0.14230917 0.049583305 0.14438187 -0.12246167
000290 a9 f0 97 bd e0 95 dd bd 02 13 2a 3d a2 62 eb be
       -0.07418949 -0.10819602 0.041522034 -0.45973688
0002a0 fb 7f c1 3e 3f 7d d7 3c 54 61 26 3e 91 10 9b 3d
       0.37792954 0.02630484 0.16248065 0.07571519
0002b0 5c 36 1e be 6f ad 0d be 1c cd 42 be 31 82 0a bc
       -0.15450424 -0.13835691 -0.19023556 -0.008453892
0002c0 6d 22 02 3e 93 c5 45 bd fd 37 dc ba e1 92 57 3e
       0.12708445 -0.048284125 -0.0016801354 0.21052124
0002d0 15 62 c7 3d 8f 2e 95 bd 1d ec 78 be e9 fa 30 be
       0.097355045 -0.07284271 -0.2430882 -0.17283215
0002e0 fb fe d0 bd b4 64 43 3e 53 ea 3d 3d f2 e5 43 be
       -0.10204884 0.19081384 0.046366047 -0.19130686
0002f0 42 28 19 3f d7 f1 3c be 9f de f6 bb b1 31 43 be
       0.59827054 -0.1845163 -0.0075338627 -0.19061925
000300 cf 7f 0b bb 88 1a a2 3d e3 49 58 3e 70 8e 73 bc
       -0.0021285897 0.07915217 0.21121936 -0.014865503
000310 fe 48 46 3c c1 b2 91 3d e7 c5 aa bd 99 ac 0a 3f
       0.012102364 0.07114173 -0.08338528 0.54169613
000320 ec ef 0b be be bd 33 be 62 20 00 3d 5e 7b 80 bd
       -0.13665742 -0.1755285 0.031280883 -0.062735304
000330 1c 59 65 bd 0e 70 4e be 9b 25 f0 bd 8e 84 26 bd
       -0.055993184 -0.20159933 -0.11725923 -0.040653758
000340 0f 0e 37 3d 41 3e 21 be 01 fd 70 3d 30 f3 3c 3e
       0.04469114 -0.15746404 0.058835033 0.18452144
000350 ef ec 87 3e 4b e5 46 3d 4e 4a 9c be c0 ac 52 3c
       0.26547953 0.048558515 -0.3052544 0.01285857
000360 86 5b 57 3d 4c 95 de bd 75 d6 bf bd aa 83 ee bb
       0.052577518 -0.1086832 -0.09367076 -0.007278879
000370 a8 7b 33 bd 72 dd 97 be 18 9f 69 be 49 74 23 bc
       -0.0438191 -0.29661137 -0.22814596 -0.009976455
000380 c4 02 1f bd 44 5f 89 3d 68 23 70 3d 50 60 d6 3d
       -0.038820997 0.067076236 0.058627516 0.10467589
000390 00 dd d7 3c 75 0a 43 3e 00 25 14 be 9a 23 ab 3e
       0.026350498 0.19046958 -0.1446724 0.334256
0003a0 43 36 b4 3d 01 ba 1b be 66 4f f7 3c 51 9b 68 bd
       0.08799412 -0.15207674 0.030189227 -0.056788746
0003b0 0e 2e c0 3d a2 5d 6c bd 58 04 ea bd b9 d5 49 ba
       0.09383784 -0.057706483 -0.1142661 -0.00076993887
0003c0 df f5 93 bd 2a 42 a3 bd 3d c0 0b be 55 c1 6c 3e
       -0.072246306 -0.07971604 -0.13647552 0.23120625
0003d0 f8 cd 18 3e 81 50 a1 3d 1d 09 21 bc d1 a7 02 be
       0.14922321 0.07876683 -0.009828833 -0.1275933
0003e0 31 b7 29 be a5 40 9c bd 79 94 fd 3d ac 76 59 3d
       -0.16573788 -0.076295175 0.123818345 0.05309169
0003f0 7e 9c 81 3e f1 80 ad bd a7 1e 95 bd d1 fc d9 3d
       0.25314707 -0.08471859 -0.07281237 0.10643924

bias f4 [8]
000000 a7 a0 13 3e da 68 a5 bd 00 90 ab 3e fe e0 20 3d
       0.14416753 -0.080766395 0.335083 0.03927707
000010 63 f9 5d 3d fb fa 6b 3e 78 70 bb bd 29 39 4d 3e
       0.05419291 0.2304496 -0.09152311 0.20041336

weight f4 [8, 4, 2, 2]
000000 47 03 ae 3e fd cf 50 be 96 36 20 bd 14 f3 aa be
       0.33986875 -0.20391841 -0.039114557 -0.3338858
000010 08 f7 9b be 28 69 93 be a3 50 dd bd d7 86 30 bd
       -0.30461907 -0.28791165 -0.10806396 -0.043097343
000020 fe f7 50 be b8 57 c5 3d d9 6c f0 3e 68 dd 30 be
       -0.20407102 0.09635872 0.46958044 -0.1727196
000030 57 b8 8d bd bc bc 17 3c 33 b1 18 bd bf 88 13 be
       -0.06919926 0.009261306 -0.037278365 -0.14407633
000040 47 ac 8d bc 0f c3 0f be da 3f 40 be 0f 74 f1 bd
       -0.017294062 -0.14039253 -0.18774357 -0.117897145
000050 0b 1f 18 be 65 cf 98 3e ef b6 39 be 5a ef 58 3e
       -0.14855592 0.2984573 -0.1813619 0.21185055
000060 a8 77 98 be 4b 41 c3 bd a8 e1 01 3f c8 8c 07 be
       -0.2977879 -0.09533938 0.5073495 -0.13237298
000070 9b 39 42 3b 5b b1 ae 3e 0d 3e 04 bd 6f d2 60 3e
       0.0029636386 0.34119686 -0.03228574 0.21955274
000080 e9 78 c6 3e d5 7c 0c be 41 71 85 be 21 e9 0c bc
       0.38764122 -0.13719495 -0.26062968 -0.008600504
000090 9e 2d ee 3d 0c ac a0 be c8 89 44 bd c1 15 fe bc
       0.116297945 -0.3138126 -0.04798296 -0.031016232
0000a0 ff 00 07 be 05 f4 4a be 7d 0d aa 3e 19 48 64 be
       -0.13183974 -0.19819649 0.33213416 -0.22293128
0000b0 03 96 de bd fc a9 f0 3d cd 73 93 3b 75 28 df bd
       -0.10868456 0.11751172 0.0044998885 -0.108963884
0000c0 a2 01 a0 3d 54 6e 13 bd 11 3e 41 3e f0 d6 1d 3e
       0.078128114 -0.03599389 0.18871333 0.15414023
0000d0 09 25 24 be aa 16 f7 bd 86 56 08 bd f2 ee c3 3d
       -0.16029753 -0.1206487 -0.03328564 0.095670596
0000e0 b1 86 0e 3e dd 6d 9a bd d3 ec b9 3b 6f 5e 6e bd
       0.13918568 -0.07540486 0.0056739836 -0.058195528
0000f0 ab 44 2c 3e 23 dd 2c 3e 81 08 8b 3e c0 96 dd 3d
       0.1682307 0.16881232 0.27154925 0.10819769
000100 89 29 45 bc e3 79 e1 bd 83 70 82 3e 51 f7 a1 bd
       -0.0120338285 -0.11009576 0.25476465 -0.079085
000110 9c 5f db 3e a4 02 8d 3e 64 3e 76 bd 80 05 c6 bc
       0.42846382 0.27541077 -0.060118094 -0.024172544
000120 8d fd 86 bb ba a5 49 be 5b a3 62 3e d5 13 12 be
       -0.004119581 -0.19692126 0.22132628 -0.14265378
000130 49 c4 87 be b3 f8 e7 3e fd 36 9f bd c3 40 45 3e
       -0.2651694 0.4530693 -0.0777416 0.19262986
000140 89 3b 2c be 58 fe 58 bc 04 42 98 bc cd 35 73 be
       -0.16819586 -0.013244234 -0.018586166 -0.23750992
000150 43 12 d4 3a 4c b8 0c be a3 cd 0d be ed 65 ce bd
       0.0016179759 -0.13742179 -0.13847975 -0.100780345
000160 6a 4c 57 bd 59 a9 7b be 40 cb aa 3e 82 94 12 bd
       -0.05256311 -0.2457632 0.33358192 -0.03578616
000170 6b e4 ee 3d 0b 72 e0 3d 93 3b 67 be 60 88 ab bc
       0.11664661 0.10959252 -0.2258132 -0.020939052
000180 ca 04 8a 3e 6b c7 9f bc f7 1f 46 be 21 3c 10 3e
       0.2695678 -0.01950427 -0.19348131 0.14085437
000190 30 ef 96 bc e0 79 e1 3d 1a 24 49 be 90 7c 63 bc
       -0.0184246 0.11009574 -0.19642678 -0.0138846785
0001a0 3d 45 71 3e 16 4b 0f be 22 5d 58 3e 85 c8 f7 3d
       0.23561569 -0.13993487 0.21129277 0.12098793
0001b0 c4 a0 ff bc 83 df 13 be dd 1a b5 be 29 f5 a0 bd
       -0.031204589 -0.14440732 -0.35372058 -0.078592606
0001c0 ee 93 92 be d5 d8 c6 3c cb 2a 8d be 61 6e 73 3c
       -0.28628486 0.024273315 -0.2757171 0.014857859
0001d0 02 02 96 be 37 bf 2c 3e c7 a7 53 be 92 96 52 be
       -0.29298407 0.16869818 -0.2066947 -0.2056525
0001e0 cf fd 28 be 19 eb d9 bc b2 da c8 3e 9b 67 0e be
       -0.1650307 -0.026601361 0.3922935 -0.1390671
0001f0 ec 94 31 be 26 31 e6 3e fa c8 53 bd 66 73 20 be
       -0.17341965 0.44959372 -0.051705338 -0.15669021

bias f4 [4]
000000 48 0a 92 3e d2 58 11 3e 18 16 c8 3c 1b 26 c4 bc
       0.2852347 0.14194039 0.024424598 -0.023943951

weight f4 [4, 2, 2, 2]
000000 ac 9c 7f be 89 7d 7f bd 97 cf 82 3e da b2 b9 bd
       -0.2496211 -0.06237558 0.25549003 -0.09067316
000010 0c 41 79 be 10 b3 99 3e 77 6b d7 3e eb c0 5e be
       -0.2434122 0.30019426 0.42074177 -0.2175328
000020 98 ab f3 3d 1c 06 a8 3e 6c 0c b4 3e d5 9f 4d bd
       0.11897963 0.3281716 0.35165727 -0.050201256
000030 bb 57 a2 be 5b 2e 0d 3e 37 4f ae be ad ce f5 be
       -0.31707558 0.13787214 -0.3404481 -0.48009244
000040 52 f4 43 be 7e c8 50 3e 64 07 b4 bd 56 7c 0d 3f
       -0.1913617 0.20388982 -0.08790472 0.55267847
000050 e0 b5 a4 3e 45 ef d5 bd 89 e8 e7 3e 43 e2 b8 be
       0.3217001 -0.10446028 0.45294598 -0.36110124
000060 b0 fe a5 3d 21 70 75 3e 5b 18 8e bd c7 a4 90 be
       0.081052184 0.23968555 -0.06938239 -0.28250715
000070 d7 86 12 be b9 87 26 be 1c 73 0d bf a4 ba 5f bb
       -0.1430925 -0.16262712 -0.5525377 -0.0034138346

bias f4 [2]
000000 11 00 d8 3e 1a 8e 34 be
       0.4218755 -0.17632332

weight f4 [2, 1, 2, 2]
000000 37 cf 98 3e f7 c6 ac be 4e 9a be 3d 5c d0 9d 3b
       0.29845592 -0.33745548 0.09306775 0.004816098
000010 22 37 d2 be 16 d0 30 be 56 ff 46 bd 4d 3f f9 3e
       -0.41057688 -0.17266878 -0.04858335 0.48681107

weight f4 [1, 1043]
000000 31 de fe bd ae e0 f6 bd a3 10 c6 bd a1 55 dc bd
       -0.124447234 -0.12054573 -0.09671142 -0.1075852
000010 48 eb dd bd 28 43 f3 bd 99 11 13 bd 24 5d b0 bc
       -0.10835892 -0.118780434 -0.035905454 -0.021528788
000020 68 c8 bf 3b 1b 05 15 bd e5 a1 d3 bd b1 75 6f 3d
       0.0058527477 -0.036381822 -0.10333613 0.05846185
000030 22 cb b0 bb 07 53 27 3d cb 30 87 bd 6a 2c a9 ba
       -0.005395309 0.040850665 -0.066011034 -0.0012906913
000040 28 ef 40 bd 7c 48 85 bc 47 94 1a bd 6f 2e 26 3e
       -0.047103077 -0.016269915 -0.037739065 0.1622865
000050 78 f1 15 3d e6 1c 22 3d 7f 3c 78 3d e4 05 18 3d
       0.036607236 0.03957834 0.06060457 0.037114993
000060 7e 23 3b bb a1 18 c9 3d a7 08 eb 3d e2 ba a3 3c
       -0.002855509 0.09819151 0.1147626 0.019986574
000070 3e 33 d2 3c e7 fa 89 3d 87 a5 94 3a 6b 97 f1 3d
       0.0256592 0.06737309 0.0011340835 0.11796459
000080 5d 9c 56 3d e8 36 8f 3d f4 36 d5 3c dc 1b a8 3d
       0.052395213 0.069928944 0.02602718 0.08208439
000090 35 63 9d 3d 34 c5 d1 3c 24 1b aa 3d 4f 48 8a 3d
       0.07684938 0.02560673 0.08305958 0.06752073
0000a0 ec 83 cc 3d ee ad da 3c bc cf 2c 3d e0 e0 e1 3c
       0.099860996 0.026694264 0.0421903 0.027573049
0000b0 97 03 89 ba c4 aa f0 3d a1 80 fd 3d 34 99 bc 3c
       -0.001045334 0.11751321 0.1237805 0.023022272
0000c0 eb 27 5b 3d 25 be 86 3d 2b ce c4 3b 92 fe 7e 3d
       0.053504866 0.06579236 0.0060060224 0.062254496
0000d0 6b 1d 9e 3d 70 bf 1e 3d 76 e9 e5 3c 2e ca 18 3d
       0.07720455 0.038756788 0.028065424 0.03730219
0000e0 c0 7c 97 3c ce e1 69 bd 12 e6 32 3c cf 54 e4 3d
       0.018492103 -0.05710011 0.010919111 0.111489885
0000f0 4a 26 ae 3d 4b fc bb 3d 5a e8 23 3d f4 8f e0 3c
       0.08503397 0.091789804 0.04001651 0.027412392
000100 4e 7d e0 3d da ec 6e 3d 90 0c a0 bc 91 9d 5c bd
       0.109614 0.058331348 -0.01953724 -0.053861205
000110 05 8e fd bd 02 9b 31 3d 1d 35 52 3d cc 4f f1 3c
       -0.12380604 0.043360718 0.051320184 0.029456995
000120 6b 85 27 3c c8 ab 2b 3d 44 20 84 3c a1 ee 93 3d
       0.01022468 0.04191187 0.016128667 0.07223249
000130 58 40 fc 3d 83 e8 d5 3d f6 18 21 3e ba e2 46 bc
       0.1231696 0.10444739 0.15732178 -0.012139017
000140 a8 93 df 3d 1e 08 eb 3c 18 62 a7 3c 30 af fc 3c
       0.10916835 0.028690394 0.020432517 0.030845255
000150 5a 18 24 3e 56 ea a1 3d 34 c9 b8 3c 14 1d 9a 3d
       0.16024914 0.07906024 0.022556879 0.075250775
000160 26 6c e3 3c 10 2a 49 3c c8 38 39 3d 06 f4 fb 3d
       0.02776153 0.012278095 0.045220166 0.12302403
000170 50 db e2 3b c1 4d 95 3d 61 a4 32 3d 02 58 0f 3e
       0.0069231167 0.07290221 0.043613795 0.13998416
000180 fa 32 8d 3d 52 7e c9 3d f6 21 ac bc b5 77 8e bd
       0.06894489 0.09838547 -0.021012288 -0.06956426
000190 f4 e0 d1 bd 28 84 f2 3d 75 6f 0c bd f6 f8 17 3d
       -0.102479845 0.11841613 -0.03428598 0.037102662
0001a0 8c ab 5a 3d 03 c0 93 3d 73 7a 74 3c 33 d6 ec 3d
       0.053386256 0.07214358 0.014921772 0.11564293
0001b0 14 98 a3 3d fa d3 b0 3d 95 19 19 3d 24 8f 7d bc
       0.07987991 0.08634181 0.037377913 -0.015476022
0001c0 94 26 b4 3c 2c 7d ab 3d 6d a2 2a 3d 28 82 1a 3e
       0.021991052 0.08373484 0.041658808 0.15088713
0001d0 cf c0 f3 3d 54 12 14 3c c0 e9 9e 3d fe 8c 36 3c
       0.1190201 0.009037573 0.07759428 0.011142014
0001e0 37 9c 29 3c ce d0 41 3e 52 f6 e3 3c 3a 2d 2f 3d
       0.010352186 0.18927309 0.027827416 0.04276774
0001f0 d2 5b 84 3d 8a 89 11 3d 73 c7 ea 3d cd d3 3b 3e
       0.06462826 0.035531558 0.11463823 0.18342514
000200 fe ca b7 3d cf a9 64 3b 39 77 74 bd 91 0f 19 3c
       0.089742646 0.0034891253 -0.059684012 0.00934209
000210 da d4 9e bd 09 ce d0 3d c0 55 be 3c af 34 7a 3b
       -0.07755442 0.10195548 0.023234248 0.0038178375
000220 c8 b3 df 3b e0 ad 2e 3d c8 11 5e 3d 99 f9 ad 3d
       0.0068268515 0.04264629 0.054216176 0.084948726
000230 be 14 74 3d a2 e0 e2 3d 12 9d 47 3d 0c 24 ce 3d
       0.059590094 0.110780016 0.04873378 0.10065469
000240 2c c1 c6 3c 5b a2 ab 3d d8 e3 b7 3d 8e 55 23 3d
       0.024262033 0.08380576 0.089790046 0.039876513
000250 c2 37 d8 3d 59 6f ce 3d 3c 31 9c bc a7 8a b6 3d
       0.1055751 0.10079832 -0.019066446 0.089131646
000260 8f d5 0a 3d 63 40 60 3d 80 d6 f1 3b 23 ce 76 3d
       0.03389507 0.054748904 0.0073803067 0.06025518
000270 1d b1 ae 3d dc b7 92 3d 1c 8a 1f 3d 55 a6 73 3d
       0.085298754 0.07163975 0.03895007 0.0594848
000280 3f c9 09 3e 32 bb 91 3d 87 47 ca 3d c2 5e 4c 3d
       0.13455676 0.07115783 0.09876924 0.049895056
000290 ee b5 23 3d 88 e3 44 3d b0 a0 a2 3d 02 b8 9b 3b
       0.039968424 0.048068553 0.07940805 0.00475216
0002a0 d5 fe f8 3d 6c 8a d9 3d 93 b8 fb 3d 6c 40 11 3c
       0.1215798 0.10622105 0.12291064 0.008865457
0002b0 03 4a 21 3b 96 66 8a 3d ab 75 43 3d bd 62 4f 3d
       0.0024610765 0.06757848 0.04771964 0.050631274
0002c0 60 80 8b 3d db 45 22 3e e2 da bf 3d 86 d9 b2 3d
       0.06811595 0.1584696 0.093679205 0.087328956
0002d0 ee 99 86 3d 9f 7e 98 3d 20 60 59 3d 5a ac c6 3d
       0.065723285 0.07446026 0.053070188 0.09700842
0002e0 4d 59 2d 3e 96 d4 80 3d 3c 84 02 3d 38 57 c0 bb
       0.16928597 0.062905475 0.03186439 -0.0058697723
0002f0 ef 16 85 3d 16 b8 e5 3d 1e e5 03 3e 5d b9 74 3d
       0.06498515 0.11216752 0.1288037 0.05974709
000300 49 65 46 3c 60 6a b0 3d d5 e8 03 3d ea 42 a6 3d
       0.012109109 0.086140394 0.032204468 0.081182316
000310 98 33 34 3d 5f e7 73 3d 7a 09 41 3d b6 ce 94 3c
       0.043994516 0.059546825 0.04712818 0.018164974
000320 25 5b 5a 3c 68 76 98 3c 5c f9 a7 3d c6 6c 93 3d
       0.013327395 0.018611148 0.082018584 0.07198481
000330 cf 8e 90 3d 45 b4 08 3d fe 5f 02 3d a7 8e a4 3d
       0.070584886 0.033375043 0.031829827 0.08035021
000340 10 64 df 3c da 28 11 bc cf a8 a9 3d 5b e4 48 3e
       0.027269393 -0.008859837 0.08284151 0.1961836
000350 41 ce da 3d fc 6d a9 3d 4e bb 9e 3d 1a 33 32 3d
       0.10683871 0.08272931 0.07750569 0.043505765
000360 04 19 9d 3d dc 73 6f 3d 74 1e 9c 3c 39 4c c5 3d
       0.07670787 0.0584601 0.01905749 0.09633679
000370 3c 52 e7 3d 14 e8 73 3d 22 9b 90 3d 90 ac bd 3d
       0.11294982 0.0595475 0.07060839 0.09261429
000380 ad 30 d6 3d 77 ff 70 3d 39 76 34 3d ee e3 9d 3d
       0.10458503 0.05883738 0.04405806 0.0770949
000390 fc 2b 1e 3d 4d 1c 19 3e 83 d6 cb 3b 82 48 93 3d
       0.038616166 0.14952202 0.00622064 0.07191564
0003a0 f8 5a eb 3d 19 d3 8d 3b ab 5d 7e 3d 7e 35 d9 3d
       0.1149196 0.0043281433 0.062101047 0.10605906
0003b0 90 7e b9 3d 3a f5 a9 3c 38 d0 1a 3d a4 d2 0e 3c
       0.09057343 0.020746816 0.03779623 0.008717213
0003c0 8c 7f a5 3d 4d 54 00 3e c0 50 0f 3d ae 4d 94 3d
       0.08080968 0.12532158 0.03498912 0.07241379
0003d0 72 da c0 3d 74 44 f7 3d b0 2e a1 3d 6e 70 db bc
       0.09416665 0.12073603 0.07870233 -0.02678701
0003e0 49 c2 d6 3d e1 ee a4 3d a4 a5 c7 3c aa f8 ff 3c
       0.10486276 0.08053375 0.024370976 0.031246502
0003f0 1a c0 66 3d 0f a4 48 3d 61 62 22 3e 54 9d e1 3d
       0.056335546 0.048984583 0.15857841 0.11016336
