oldversions/placement_ispd18test3.pt (torch, 298741 bytes, 14 tensors)

weight f4 [64, 1047]
0.041804194 -0.03097817 -0.0028068032 -0.02129029 -0.036637444 0.005667167 -0.012807659 0.104735166
-0.047761187 0.05991864 -0.046437986 0.027515333 0.11045865 -0.016572725 0.05901411 0.02759302
0.014532259 0.055983968 -0.066594146 0.039212372 0.04077721 -0.004394814 0.028087756 0.040048525
0.011797789 -0.0754531 0.045558 0.005827923 -0.0004642794 0.011928762 0.004225066 -0.012473967
0.0087938905 -0.015788285 -0.0272791 0.026446499 -0.050503828 -0.0448715 0.062123388 0.097161375
0.007956962 -0.0006876883 -0.011077415 0.022179434 0.013998278 -0.01226753 -0.050708745 -0.015157826
0.03872241 0.085173495 0.04026513 0.05644848 0.022834295 0.00034043894 0.0071626217 -0.004563169
-0.041263297 -0.04093942 -0.010510722 0.0063978313 0.022920696 0.050814677 -0.013331301 -0.0008478132
-0.026328592 -0.026000494 -0.017747622 -0.01707349 0.003530109 0.016838916 -0.059051774 -0.07256349
-0.02476128 0.049872663 0.028412163 0.015105962 -0.020268027 0.079013325 -0.033344105 0.10140369
0.0021676908 -0.06465621 -0.030751562 0.083190836 -0.031454828 -0.055940658 -0.11288247 0.029676525
-0.030522475 0.010099205 0.0012375078 -0.0082733845 -0.053430185 -0.0107921045 -0.08198762 0.029354574
0.06078645 0.011399401 -0.057838034 0.029910594 0.0021808553 0.024286717 -0.018686024 -0.025547465
0.017213117 -0.041594747 -0.054492436 0.023146637 0.0118139405 0.0014230409 -0.024540327 0.0050840303
0.045075495 0.025114058 -0.013903034 0.032005414 -0.028924718 0.07598872 -0.006057769 0.006994887
0.06399969 -0.01882009 -0.050054688 0.045925703 -0.012909357 0.02954857 0.053550232 0.051774453
0.04930292 0.03221542 0.03599721 0.024420463 -0.013678796 0.029192546 -0.025112567 -0.018656397
0.012874016 -0.017035225 -0.01601851 -0.09483124 -0.06428456 0.05098509 0.06888042 0.0065562786
0.029702315 -0.016521597 0.015771462 0.045081154 0.026697978 0.0323458 0.046900764 0.01914739
0.012920301 0.002593716 0.035228644 0.009129363 0.04901837 0.032355618 -0.026680076 0.024645243
0.01556706 -0.0009652063 0.015301638 0.035543133 0.03704838 -0.06829332 -0.060762886 0.08997204
-0.026983831 0.029680831 -0.0004900078 0.063228495 -0.05147488 0.078779064 -0.03564293 -0.07048819
0.014164315 0.051989336 0.06644214 -0.03708944 -0.039228715 -0.0328914 -0.104101256 0.048002016
-0.035553023 0.010217627 -0.068601996 0.023731658 0.0019243071 0.06984144 -0.03285747 0.034249432
-0.009810197 -0.026031474 0.020035533 0.015292745 0.02056341 -0.040202416 0.030005889 0.012002763
-0.037899073 -0.014159354 0.024353478 -0.009266637 0.07267718 0.06725186 -0.023543581 0.0352744
0.02222603 -0.015019264 0.014982327 0.04450924 0.0052741515 -0.0125899855 0.039896898 -0.032870207
0.022867339 -0.0003294836 0.008105854 0.046403583 -0.013874413 0.027338993 -0.0146878855 0.054664083
0.0380311 -0.0065494166 -0.01969443 -0.017766124 0.007876533 -0.05434021 -0.12060967 0.015436662
-0.05591973 -0.04440568 0.016762145 0.087854475 0.0151531175 0.009371153 0.043337725 0.041418314
0.0017939893 -0.016289057 0.046881486 -0.049258657 0.08065621 0.014715106 0.05293225 -0.06764684
0.021457942 0.07769011 -0.041066468 0.08039819 0.023007806 -0.04445365 0.044910364 0.084129184
00000000: e03a 2b3d eec5 fdbc 58f2 37bb f968 aebc
00000010: 2511 16bd a4b3 b93b 37d7 51bc 647f d63d
00000020: 3ca1 43bd 3f6d 753d c235 3ebd d667 e13c
00000030: 2538 e23d 86c3 87bc c8b8 713d c20a e23c
00000040: b618 6e3c 724f 653d 8362 88bd 279d 203d
00000050: 0106 273d 5f02 90bb 4b18 e63c ec09 243d
00000060: 834b 413c 2887 9abd 079b 3a3d 29f8 be3b
00000070: 876a f3b9 db70 433c 6c72 8a3b 9c5f 4cbc
00000080: 4014 103c 6f56 81bc 6b78 dfbc 54a6 d83c
00000090: 1add 4ebd 2ecb 37bd 1875 7e3d 8bfc c63d
000000a0: eb5d 023c fb45 34ba 0c7e 35bc a5b1 b53c
000000b0: 0959 653c c0fd 48bc f9b3 4fbd 8858 78bc
000000c0: 649b 1e3d 716f ae3d 0ded 243d 8536 673d
000000d0: fd0e bb3c f17c b239 6db4 ea3b a386 95bb
000000e0: b403 29bd 18b0 27bd 2a35 2cbc e6a4 d13b
000000f0: 2fc4 bb3c 0d23 503d 876b 5abc c83f 5eba
00000100: 0faf d7bc fdfe d4bc 7663 91bc b4dd 8bbc
00000110: 6759 673b c4f1 893c 46e0 71bd 2b9c 94bd
00000120: 2bd8 cabc 4747 4c3d a0c0 e83c ff7e 773c
00000130: 2209 a6bc bdd1 a13d d493 08bd bdac cf3d
00000140: d10f 0e3b 7a6a 84bd b3ea fbbc f55f aa3d
00000150: c7d6 00bd 0822 65bd ed2e e7bd 2f1c f33c
00000160: 450a fabc 2377 253c df33 a23a 178d 07bc
00000170: 9cd9 5abd 5ed1 30bc 20e9 a7bd 0179 f03c
00000180: 36fb 783d 8ec4 3a3c 93e7 6cbd 1007 f53c
00000190: aeec 0e3b f0f4 c63c 6f13 99bc eb48 d1bc
000001a0: 8602 8d3c 415f 2abd 7633 5fbd 049e bd3c
000001b0: 428f 413c 5485 ba3a cc08 c9bc f097 a63b
000001c0: 15a1 383d ffbb cd3c 8dc9 63bc 1c18 033d
000001d0: 88f3 ecbc f99f 9b3d 4080 c6bb 5d35 e53b
000001e0: 4512 833d 972c 9abc 2506 4dbd 971c 3c3d
000001f0: c581 53bc d80f f23c 7d57 5b3d 7311 543d
00000200: dcf1 493d 51f4 033d cf71 133d 6c0d c83c
00000210: 071d 60bc 3525 ef3c dfb8 cdbc 4dd5 98bc
00000220: 89ed 523c 758d 8bbc 4039 83bc e236 c2bd
00000230: a0a7 83bd bed5 503d 2d11 8d3d 0dd6 d63b
00000240: 4552 f33c 4d58 87bc 2733 813c 04a7 383d
00000250: b8b5 da3c 087d 043d 041b 403d fdda 9c3c
00000260: acaf 533c 55fb 293b e94b 103d 5393 153c
00000270: 7dc7 483d 5387 043d 2d90 dabc d2e4 c93c
00000280: fb0c 7f3c e605 7dba b9b3 7a3c ad95 113d
00000290: 0bc0 173d 5edd 8bbd 81e2 78bd 4343 b83d
000002a0: 320d ddbc 3725 f33c de73 00ba f17d 813d
000002b0: 53d7 52bd eb56 a13d 52fe 11bd 1d5c 90bd
000002c0: 7111 683c c5f2 543d d112 883d 19eb 17bd
000002d0: 4aae 20bd 22b9 06bd 0a33 d5bd c39d 443d
000002e0: 0ca0 11bd d567 273c 347f 8cbd e568 c23c
000002f0: 0839 fc3a 0709 8f3d 8e95 06bd 2249 0c3d
00000300: f3ba 20bc f53f d5bc 8f21 a43c 6c8e 7a3c
00000310: 9974 a83c 4aab 24bd e9ce f53c 3da7 443c
00000320: 0f3c 1bbd a3fc 67bc f280 c73c 18d3 17bc
00000330: c6d7 943d 58bb 893d 78de c0bc e47b 103d
00000340: 5d13 b63c 5c13 76bc 6f78 753c 524f 363d
00000350: cad2 ac3b 3a46 4ebc ee6a 233d e9a2 06bd
00000360: 4954 bb3c 8abe acb9 6ace 043c af11 3e3d
00000370: 8251 63bc 06f6 df3c 75a5 70bc 72e7 5f3d
00000380: 80c6 1b3d 7d9c d6bb 3756 a1bc 438a 91bc
00000390: 930c 013c d793 5ebd 3402 f7bd 0eea 7c3c
000003a0: 160c 65bd bbe2 35bd c450 893c 0ced b33d
000003b0: c844 783c 7789 193c e682 313d 40a6 293d
000003c0: 4b24 eb3a a170 85bc cd06 403d 72c3 49bd
000003d0: 152f a53d a117 713c 7dcf 583d 6d8a 8abd
000003e0: 91c8 af3c fe1b 9f3d 5035 28bd cea7 a43d
000003f0: de7a bc3c 0815 36bd eef3 373d ec4b ac3d

bias f4 [64]
0.0 0.0 0.0 0.0 0.0 0.0 0.0 0.0
0.0 0.0 0.0 0.0 0.0 0.0 0.0 0.0
0.0 0.0 0.0 0.0 0.0 0.0 0.0 0.0
0.0 0.0 0.0 0.0 0.0 0.0 0.0 0.0
0.0 0.0 0.0 0.0 0.0 0.0 0.0 0.0
0.0 0.0 0.0 0.0 0.0 0.0 0.0 0.0
0.0 0.0 0.0 0.0 0.0 0.0 0.0 0.0
0.0 0.0 0.0 0.0 0.0 0.0 0.0 0.0
00000000: 0000 0000 0000 0000 0000 0000 0000 0000
00000010: 0000 0000 0000 0000 0000 0000 0000 0000
00000020: 0000 0000 0000 0000 0000 0000 0000 0000
00000030: 0000 0000 0000 0000 0000 0000 0000 0000
00000040: 0000 0000 0000 0000 0000 0000 0000 0000
00000050: 0000 0000 0000 0000 0000 0000 0000 0000
00000060: 0000 0000 0000 0000 0000 0000 0000 0000
00000070: 0000 0000 0000 0000 0000 0000 0000 0000
00000080: 0000 0000 0000 0000 0000 0000 0000 0000
00000090: 0000 0000 0000 0000 0000 0000 0000 0000
000000a0: 0000 0000 0000 0000 0000 0000 0000 0000
000000b0: 0000 0000 0000 0000 0000 0000 0000 0000
000000c0: 0000 0000 0000 0000 0000 0000 0000 0000
000000d0: 0000 0000 0000 0000 0000 0000 0000 0000
000000e0: 0000 0000 0000 0000 0000 0000 0000 0000
000000f0: 0000 0000 0000 0000 0000 0000 0000 0000

weight f4 [32, 64]
-0.1676448 0.039312094 0.27850312 0.12557581 0.052424356 -0.26238698 0.18710703 -0.18341462
0.042931113 0.12902957 0.23224984 0.19360712 0.34086424 0.05094684 0.18405668 0.1024077
0.065623306 -0.0007597944 -0.12100424 -0.12192613 0.24062124 0.06447469 -0.15071288 0.28789026
0.20479976 -0.07834381 0.24168819 -0.25512305 0.21829328 0.2735951 0.08364981 -0.19313334
0.09549677 -0.18463092 0.003988275 0.04561766 -0.044589173 -0.17752762 0.15392347 -0.05806633
-0.17511815 0.050096776 0.072495244 -0.08786183 0.09965815 -0.1301224 -0.5250609 0.2837294
0.1519821 0.09708076 0.27627733 0.0661767 0.11584052 -0.12435594 -0.06916274 0.11571906
0.08323811 0.009940101 -0.2083496 -0.0331211 0.17946413 -0.06838959 -0.07837314 0.008893988
-0.04738751 0.18896289 0.068182975 0.040655673 -0.11483883 0.029176217 -0.054131646 0.22307025
-0.27505726 0.037338607 0.08108894 -0.26970327 -0.2888502 0.0024126836 0.10662376 0.027290402
-0.020651685 0.0135000525 0.04881388 0.16772468 -0.06308793 0.11332372 0.038292803 0.15035184
-0.30121246 0.2683423 -0.1920245 0.008883672 0.33279976 -0.112449795 -0.22207086 -0.012548366
0.11164366 -0.22342882 0.31062603 0.12018219 0.015194954 0.33448577 -0.08840342 0.1592859
-0.026162053 0.35466737 0.02633165 0.1732025 -0.31274393 -0.022868656 -0.07958895 0.017468
-0.124933526 0.06308563 0.044716746 -0.034443453 0.06760653 -0.38881817 -0.053257544 -0.078627445
-0.095035456 0.031251423 0.10592545 -0.13882795 0.08184262 -0.14386244 0.25155583 0.013288699
-0.062498912 0.09743935 -0.059935305 -0.18613121 -0.0027403974 0.15450354 -0.2388323 0.20784095
0.066281326 0.14020601 0.050081257 0.0945838 0.13038218 -0.13512959 0.12909126 0.011110249
0.0017402956 0.20429286 0.07157384 0.008307615 0.17842664 -0.32764634 -0.1336884 0.07389802
-0.041787595 -0.015644118 -0.14070745 -0.31794032 0.19563773 -0.24581385 -0.060156196 0.046077803
-0.054729857 -0.37368867 -0.04429313 0.09375314 0.17530736 0.17317334 0.11847182 0.094929405
-0.14823285 -0.022753736 0.3025538 0.09170557 0.06573478 -0.04694741 0.00996506 0.016029619
0.146449 0.059854936 0.17896977 0.017586347 -0.059833903 0.12845333 -0.18995103 -0.22373645
0.08229921 0.17589085 -0.0854272 0.24163777 -0.16306481 -0.07087599 -0.1590504 -0.2960808
0.14936958 0.027446708 0.28456667 0.11442266 -0.07510976 -0.03276117 -0.13611074 -0.17513412
-0.040990606 -0.016739324 -0.07736344 -0.30841127 0.27059308 -0.056105595 0.01106159 -0.059230205
-0.059110347 0.062118903 -0.0043372684 -0.024856681 -0.0022854046 0.119889416 0.22103542 0.04014897
-0.21879403 -0.1767377 -0.11941838 -0.0082927635 0.15468839 -0.10094435 0.08396156 0.080460675
-0.08328125 -0.03731904 0.17315274 -0.05948148 0.090997376 0.0122059025 0.10759154 0.03045434
0.018815137 -0.18094051 -0.2505747 0.09081256 0.01847577 -0.113498144 -0.045761038 -0.03592316
-0.17200126 0.20509037 -0.0670208 0.11564042 -0.16828908 0.050896764 0.06323457 -0.051910143
-0.074829996 -0.41091257 0.06354072 0.3277657 0.09668777 0.35607848 0.038000137 -0.048360102
00000000: 14ab 2bbe b805 213d f697 8e3e f296 003e
00000010: ecba 563d 9657 86be fc98 3f3e 0bd1 3bbe
00000020: 89d8 2f3d 5420 043e e7d2 6d3e f240 463e
00000030: c285 ae3e a2ad 503d 5b79 3c3e 21bb d13d
00000040: 8365 863d f02c 47ba 12d1 f7bd 68b4 f9bd
00000050: 6a65 763e 4e0b 843d 7a54 1abe 5a66 933e
00000060: 07b7 513e b872 a0bd 1c7d 773e 7d9f 82be
00000070: 4688 5f3e a814 8c3e 9750 ab3d bfc4 45be
00000080: d093 c33d e30f 3dbe 13b0 823b 95d9 3a3d
00000090: 23a3 36bd cdc9 35be 1d9e 1d3e f6d6 6dbd
000000a0: 2c52 33be 4732 4d3d 6378 943d e7f0 b3bd
000000b0: 9219 cc3d ce3e 05be 646a 06bf fb44 913e
000000c0: 32a1 1b3e 47d2 c63d 3974 8d3e a687 873d
000000d0: cb3d ed3d 54ae febd 32a5 8dbd 1dfe ec3d
000000e0: be78 aa3d cedb 223c 9959 55be fea9 07bd
000000f0: 72c5 373e d70f 8cbd 1982 a0bd 17b8 113c
00000100: 6819 42bd 7d7f 413e 84a3 8b3d 9086 263d
00000110: 9f30 ebbd f602 ef3c 25b9 5dbd 876c 643e
00000120: 4ed4 8cbe 5ef0 183d f511 a63d 8c16 8abe
00000130: 2ce4 93be 1d1e 1e3b 8f5d da3d 1f90 df3c
00000140: b92d a9bc 532f 5d3c 10f1 473d 05c0 2b3e
00000150: 3f34 81bd 4416 e83d ead8 1c3d d5f5 193e
00000160: 8538 9abe 2964 893e 12a2 44be d28c 113c
00000170: bb64 aa3e 144c e6bd 8b66 63be a997 4dbc
00000180: 6ea5 e43d 86ca 64be 600a 9f3e 1422 f63d
00000190: 42f4 783c b841 ab3e da0c b5bd d81b 233e
000001a0: cd51 d6bc f696 b53e 79b5 d73c ff5b 313e
000001b0: f91f a0be 0c57 bbbc 88ff a2bd 0d19 8f3c
000001c0: 26dd ffbd 0a33 813d e828 373d 9414 0dbd
000001d0: 4b75 8a3d 2d13 c7be 9524 5abd 6d07 a1bd
000001e0: f3a1 c2bd 7e01 003d 71ef d83d ea28 0ebe
000001f0: 1b9d a73d ad50 13be edcb 803e d8b8 593c
00000200: dcfe 7fbd 488e c73d b97e 75bd 2e99 3ebe
00000210: 3d98 33bb 2d36 1e3e 7490 74be 42d4 543e
00000220: 81be 873d 2a92 0f3e 0122 4d3d 27b5 c13d
00000230: e882 053e 695f 0abe 8030 043e c307 363c
00000240: a11a e43a 2632 513e 4e95 923d aa1c 083c
00000250: 79b5 363e 43c1 a7be 9de5 08be d857 973d
00000260: 7829 2bbd 1828 80bc 9d15 10be 13c9 a2be
00000270: 4255 483e a0b6 7bbe 5866 76bd 14bc 3c3d
00000280: 6a2c 60bd 1f54 bfbe b76c 35bd a501 c03d
00000290: c683 333e 5a54 313e 5ba1 f23d 596a c23d
000002a0: 5aca 17be 0b66 babc 55e8 9a3e 21d0 bb3d
000002b0: f59f 863d ed4b 40bd 7e44 233c 8c50 833c
000002c0: baf6 153e 732a 753d da43 373e 3e11 903c
000002d0: 6514 75bd 4589 033e 8682 42be 2b1b 65be
000002e0: 7d8c a83d bb1c 343e 75f4 aebd e46f 773e
000002f0: 76fa 26be 6e27 91bd 1cde 22be e797 97be
00000300: 57f4 183e ebd7 e03c b9b2 913e 6d56 ea3d
00000310: 25d3 99bd 9430 06bd 9d60 0bbe 5c56 33be
00000320: c4e5 27bd e820 89bc b970 9ebd 15e8 9dbe
00000330: 2d8b 8a3e fbce 65bd ac3b 353c 5f9b 72bd
00000340: b11d 72bd 6470 7e3d a51f 8ebb 3da0 cbbc
00000350: bac6 15bb 9588 f53d 1c57 623e 3f73 243d
00000360: 8b0b 60be bafa 34be a091 f4bd 5fde 07bc
00000370: a266 1e3e e9bb cebd 0af4 ab3d 91c8 a43d
00000380: 5c8f aabd dadb 18bd f44e 313e daa2 73bd
00000390: d55c ba3d 44fb 473c f458 dc3d 617b f93c
000003a0: 3422 9a3c 7848 39be 544b 80be effb b93d
000003b0: 7f5a 973c b771 e8bd ed6f 3bbd 2a24 13bd
000003c0: 1921 30be 3603 523e 3442 89bd e2d4 ec3d
000003d0: f953 2cbe 2079 503d 2081 813d bb9f 54bd
000003e0: 7840 99bd 2263 d2be a321 823d e8d0 a73e
000003f0: 3d04 c63d eb4f b63e 08a6 1b3d 3e15 46bd

bias f4 [32]
0.0 0.0 0.0 0.0 0.0 0.0 0.0 0.0
0.0 0.0 0.0 0.0 0.0 0.0 0.0 0.0
0.0 0.0 0.0 0.0 0.0 0.0 0.0 0.0
0.0 0.0 0.0 0.0 0.0 0.0 0.0 0.0
00000000: 0000 0000 0000 0000 0000 0000 0000 0000
00000010: 0000 0000 0000 0000 0000 0000 0000 0000
00000020: 0000 0000 0000 0000 0000 0000 0000 0000
00000030: 0000 0000 0000 0000 0000 0000 0000 0000
00000040: 0000 0000 0000 0000 0000 0000 0000 0000
00000050: 0000 0000 0000 0000 0000 0000 0000 0000
00000060: 0000 0000 0000 0000 0000 0000 0000 0000
00000070: 0000 0000 0000 0000 0000 0000 0000 0000

weight f4 [32, 16, 2, 2]
-0.0026523024 -0.026221156 0.11697841 -0.019416869 0.033809975 0.12421939 0.02177021 -0.02418147
0.06898986 0.0029857457 0.075638175 -0.0056084543 0.0636228 -0.02570492 -0.08895163 0.10026671
-0.08526792 0.00031392276 -0.094194576 0.09116946 0.009305581 0.07834886 -0.034410954 -0.12376076
0.069398 0.065442055 -0.0636833 -0.04200296 -0.030131519 -0.0114231855 0.07003249 0.029795036
0.086826086 -0.058406815 -0.11760719 0.06354992 0.015458345 -0.0331029 0.03355542 -0.0021053106
0.067126036 0.030185997 -0.046524018 0.049442545 -0.018896863 0.014455438 -0.031348363 0.056722894
-0.124275714 0.051950544 -0.05727774 -0.10501425 0.00798513 0.0026717037 -0.11112586 0.06805839
0.013316855 -0.05683045 -0.07035941 0.11203304 -0.004476443 0.020995468 -0.09747939 0.0080559105
0.08548395 -0.01988417 -0.095384136 -0.029678985 0.063257486 0.018578723 0.02413787 0.007800266
-0.075621665 0.012869045 -0.025817037 0.09684177 -0.005756736 -0.082296 -0.03538376 -0.061259925
-0.07823901 -0.08288546 0.008741021 -0.05562514 -0.007908031 -0.04463595 -0.005082473 0.09699391
-0.027683556 0.11043835 -0.043535084 -0.07195945 0.08944766 -0.09240304 -0.032971993 0.07148744
-0.061518133 -0.06743747 -0.00737828 -0.011386126 -0.013654381 -0.006512046 -0.024923295 0.029913217
0.07345021 -0.026312307 -0.09098847 0.020433098 -0.03663513 0.06937927 0.08721089 -0.07040949
0.11049721 0.109786555 0.022528052 -0.105514154 -0.020793691 0.04723142 0.12427752 -0.00899528
0.07276066 0.016086012 -0.02709885 0.033528417 -0.060466185 0.07911675 0.0512996 -0.101344645
0.031215936 0.117780045 0.06937894 -0.087395996 -0.11755408 0.102875814 -0.022416234 -0.07447384
0.03064993 0.05660607 0.037305683 -0.10227463 0.004538387 -0.041258037 0.11889629 0.078896075
0.07384905 0.0132608265 -0.065672606 -0.07258491 0.105770886 -0.08186728 -0.10667713 -0.07526936
0.031415716 0.06389995 -0.07448307 0.09326151 -0.12494545 0.006006852 -0.062636256 0.096929744
0.11903636 -0.06873034 -0.048548862 0.025336355 -0.119177505 0.12380791 -0.051079765 -0.096039
0.046088338 0.0255595 0.09176406 -0.087470114 0.024316072 -0.032650813 -0.105022356 0.09581353
-0.047382027 0.02179493 -0.09522155 0.06629029 -0.052779093 -0.07291514 0.054253623 -0.0055093467
0.04776366 0.016967878 0.05121468 0.016013354 -0.09330644 0.07249832 0.017653316 0.0912426
-0.10151617 -0.044630557 -0.09122831 -0.09076099 -0.022406772 0.05407259 -0.12483372 -0.019396514
0.11514877 0.039609626 0.09278691 -0.021448106 0.06466469 -0.063516974 -0.09967533 0.0750159
-0.02572453 0.11318898 0.11186887 -0.06572437 0.015874997 -0.08020012 0.077127516 -0.08323078
0.030355394 -0.06033899 -0.08629738 -0.044215977 -0.072944954 -0.06703505 0.021486104 -0.0042232573
-0.0018797964 -0.047817767 -0.062469974 -0.05986163 0.0723823 -0.099083185 0.100012556 -0.10106914
0.081375405 -0.015007377 0.086887464 -0.0068858117 -0.048065826 -0.06262399 -0.086471975 0.102311105
-0.03239198 -0.10901171 0.046935365 0.089659885 0.049762785 0.0062103122 -0.020592228 -0.06869453
-0.10458763 0.018984795 0.11381398 -0.025720283 -0.04815498 0.02011019 0.008096248 -0.035174385
00000000: 40d2 2dbb c0cd d6bc 6092 ef3d 2010 9fbc
00000010: 547c 0a3d bc66 fe3d 7057 b23c 3818 c6bc
00000020: 8e4a 8d3d 80ac 433b 30e8 9a3d 20c7 b7bb
00000030: ac4c 823d 2093 d2bc 462c b6bd a258 cd3d
00000040: f2a0 aebd 0096 a439 16e9 c0bd 0eb7 ba3d
00000050: 7076 183c 5e75 a03d 80f2 0cbd 4876 fdbd
00000060: 8a20 8e3d 7c06 863d 646c 82bd 4c0b 2cbd
00000070: 60d6 f6bc 5028 3bbc 326d 8f3d b814 f43c
00000080: e0d1 b13d fc3b 6fbd 0adc f0bd 7626 823d
00000090: 0045 7d3c e896 07bd 6871 093d 40f9 09bb
000000a0: 6079 893d a048 f73c f88f 3ebd 4484 4a3d
000000b0: 98cd 9abc 80d6 6c3c 2467 00bd 4456 683d
000000c0: 4484 febd 18ca 543d 109c 6abd b611 d7bd
000000d0: 10d4 023c c017 2f3b f495 e3bd 3262 8b3d
000000e0: f02e 5a3c 0cc7 68bd 9818 90bd 9471 e53d
000000f0: 20af 92bb b0fe ab3c 46a3 c7bd f0fc 033c
00000100: 3612 af3d 20e4 a2bc c258 c3bd 5821 f3bc
00000110: 248d 813d 6832 983c c8bc c53c 6099 ff3b
00000120: 88df 9abd b0d8 523c 407e d3bc fa54 c63d
00000130: 00a3 bcbb ce8a a8bd 90ee 10bd b0eb 7abd
00000140: c63b a0bd dabf a9bd 8036 0f3c 30d7 63bd
00000150: b090 01bc 30d4 36bd e08a a6bb bea4 c63d
00000160: a0c8 e2bc 802d e23d d851 32bd 7a5f 93bd
00000170: 5630 b73d ce3d bdbd a40d 07bd 0268 923d
00000180: 70fa 7bbd a81c 8abd 80c5 f1bb e08c 3abc
00000190: a0b6 5fbc 0063 d5bb f02b ccbc 900c f53c
000001a0: 106d 963d e88c d7bc 2a58 babd 5063 a73c
000001b0: b80e 16bd b816 8e3d a09b b23d da32 90bd
000001c0: 5c4c e23d c6d7 e03d c08c b83c ce17 d8bd
000001d0: 8857 aabc bc75 413d 3685 fe3d f060 13bc
000001e0: 8a03 953d d0c6 833c 68fe ddbc 1855 093d
000001f0: 64ab 77bd f607 a23d 881f 523d c88d cfbd
00000200: 90b8 ff3c aa36 f13d 8c16 8e3d acfc b2bd
00000210: 32c0 f0bd 8eb0 d23d 40a2 b7bc be85 98bd
00000220: 9015 fb3c c4db 673d d8cd 183d 5c75 d1bd
00000230: c0b6 943b 30fe 28bd e67f f33d 4494 a13d
00000240: 2c3e 973d f043 593c 5c7f 86bd 66a7 94bd
00000250: 689e d83d 08aa a7bd 8a79 dabd d226 9abd
00000260: c4ad 003d fadd 823d 948a 98bd e4ff be3d
00000270: 66e3 ffbd 20d5 c43b 7047 80bd 1a83 c63d
00000280: 56c9 f33d 7ec2 8cbd 2cdb 46bd 308e cf3c
00000290: 5613 f4bd 008f fd3d 0439 51bd 18b0 c4bd
000002a0: 20c7 3c3d 2862 d13c ccee bb3d 8823 b3bd
000002b0: 8032 c73c dcbc 05bd f615 d7bd e239 c43d
000002c0: a813 42bd 488b b23c 8403 c3bd 34c3 873d
000002d0: e42e 58bd 8854 95bd 0c39 5e3d c087 b4bb
000002e0: d4a3 433d 3800 8b3c 7cc6 513d 702e 833c
000002f0: 7217 bfbd 007a 943d b09d 903c 66dd ba3d
00000300: b6e7 cfbd 88ce 36bd e8d5 babd e6e0 b9bd
00000310: 688e b7bc 387b 5d3d d2a8 ffbd 70e5 9ebc
00000320: 1ed3 eb3d b43d 223d 1007 be3d f0b3 afbc
00000330: ec6e 843d 3015 82bd 9422 ccbd f0a1 993d
00000340: 40bc d2bc a0cf e73d 821b e53d 809a 86bd
00000350: 480c 823c f63f a4bd 08f5 9d3d e674 aabd
00000360: e0ab f83c 0426 77bd aebc b0bd d01b 35bd
00000370: 2a64 95bd ac49 89bd a003 b03c 4063 8abb
00000380: 8063 f6ba 90dc 43bd 84e0 7fbd 7831 75bd
00000390: 2c3d 943d 20ec cabd 62d3 cc3d 56fd cebd
000003a0: 26a8 a63d 80e1 75bc 0ef2 b13d 60a2 e1bb
000003b0: ace0 44bd 0241 80bd 3818 b1bd 7c88 d13d
000003c0: 74ad 04bd 8841 dfbd 4c3f 403d 9a9f b73d
000003d0: 10d4 4b3d e07f cb3b 08b1 a8bc b8af 8cbd
000003e0: 0a32 d6bd 0086 9b3c 4e17 e93d 58b3 d2bc
000003f0: 283e 45bd 20be a43c 20a6 043c 0413 10bd

bias f4 [16]
-0.04918973 0.07508679 -0.10075268 -0.08662489 -0.093619555 0.07911688 0.06362449 0.10953018
-0.11340974 -0.09395903 0.025339708 0.12307276 0.0039060265 0.08136529 0.0072371364 0.10067603
00000000: 2c7b 49bd 1ac7 993d 6c57 cebd 6468 b1bd
00000010: 9cbb bfbd 0808 a23d 8e4d 823d 5c51 e03d
00000020: 5e43 e8bd 986d c0bd 3895 cf3c 920d fc3d
00000030: 40fc 7f3b d8a2 a63d 8025 ed3b 3c2f ce3d

weight f4 [16, 8, 2, 2]
0.09606539 0.15717278 0.13557036 0.13138379 -0.026996136 0.13522564 0.04996869 -0.04224494
-0.13758168 0.14466266 -0.17412193 -0.07003063 0.13145752 0.123356834 -0.094398655 -0.0577043
-0.13478544 -0.0825081 -0.035304517 -0.079354085 -0.04787089 -0.038600698 -0.089813665 0.15751015
0.04452926 -0.060965396 0.17338066 -0.15885885 0.14816822 0.021918952 0.1491235 -0.10471439
0.08591814 0.16447641 0.108830735 0.012227416 0.009277031 -0.14954075 -0.07511074 -0.005855635
0.14181386 0.09130363 -0.17024507 -0.1570448 -0.018468723 0.119635835 -0.16688588 0.06904301
-0.037474155 0.104033485 -0.054764643 0.03521979 0.16067947 0.15938611 -0.018614307 0.14032237
0.14737974 0.017561585 -0.08679423 -0.033670142 -0.14900379 -0.17523186 0.1270154 -0.08691043
0.06004688 0.16030587 0.086199805 0.03222297 0.07498033 -0.056690082 0.10589276 0.009778842
-0.15123987 0.009815156 0.10991372 0.11296566 0.12749378 0.13146783 -0.12678611 -0.010828152
0.08357133 0.013900831 0.044599563 0.16242553 0.16548969 -0.05972162 0.11307661 0.07488872
-0.11724912 -0.059646912 0.17320393 -0.1570144 0.098265365 0.020325154 -0.17405081 -0.059267826
0.034118608 0.110365465 -0.13887481 -0.14208803 -0.14370278 -0.008786306 0.11622004 -0.05239688
-0.07946906 -0.0570352 -0.030974314 0.13578685 0.019496083 0.043923214 -0.00074476004 -0.015157104
-0.068997175 -0.104090594 -0.0331423 -0.077816844 -0.016696364 -0.14810276 0.14573161 0.0754949
0.025048777 -0.04960303 -0.13933972 0.0857137 -0.15848565 0.12410556 0.09955068 0.09040709
-0.15676446 0.028158829 -0.077700704 -0.05699206 -0.05720459 -0.07825338 -0.020171314 0.09247963
0.10572933 -0.11673815 -0.16120204 0.15324835 -0.14657873 0.12291588 0.17108743 -0.07349175
-0.003602907 0.1565183 -0.07300004 0.10118927 0.013296649 -0.13813983 -0.09021716 0.048845008
0.13016574 0.007287279 -0.16504738 -0.16126922 0.104093775 0.015482098 -0.0073705167 0.00771372
-0.068918526 0.038085908 0.14233439 -0.16840371 0.12642436 -0.013943806 0.08334066 0.17402671
-0.17358358 -0.047492653 0.0902624 0.041003704 -0.07213886 0.10468729 0.147945 2.4467707e-05
-0.06342888 0.17221074 -0.015592545 0.14561813 0.018116787 0.158915 0.06630576 -0.078202024
-0.07902487 0.17598335 -0.01732944 -0.13915475 -0.16666062 -0.08795354 -0.04640998 -0.11621835
0.052742183 0.09147005 -0.16350712 -0.09680754 -0.13232191 0.014848292 0.1760756 -0.065650396
0.031663373 -0.10421944 -0.15154736 -0.10459332 0.17611383 0.023408636 -0.037022933 -0.11393707
0.15836279 0.07561882 0.15621041 0.12193166 0.008891866 -0.028155148 -0.12815942 0.062122867
-0.044000536 -0.038458005 -0.13430133 -0.06622313 0.16410746 0.14035381 0.06518942 0.0018525273
0.16358374 -0.0462192 0.08909653 0.17618366 0.06199485 0.1112435 -0.11353803 0.16070311
0.12369464 -0.120304786 -0.12624976 0.053906575 0.019425392 0.087125465 -0.17276356 0.014488667
0.13203995 0.023302063 0.16653334 0.16448785 0.026337564 0.11263569 -0.10894469 0.15229745
-0.13287559 0.09580384 -0.021748528 -0.0642343 -0.06341197 0.16364636 -0.08257735 0.16362293
00000000: eebd c43d e7f1 203e f5d2 0a3e 7989 063e
00000010: 0027 ddbc 9778 0a3e f8ab 4c3d 0809 2dbd
00000020: 36e2 0cbe 7322 143e 054d 32be 386c 8fbd
00000030: cd9c 063e 82a2 fc3d 1554 c1bd 585b 6cbd
00000040: 3205 0abe 02fa a8bd 789b 10bd 6584 a2bd
00000050: 4414 44bd c41b 1ebd 3af0 b7bd 574a 213e
00000060: 5064 363d dab6 79bd b38a 313e e5ab 22be
00000070: 69b9 173e 608f b33c d5b3 183e 8074 d6bd
00000080: daf5 af3d 816c 283e a6e2 de3d 8055 483c
00000090: b0fe 173c 3621 19be a9d3 99bd a0e0 bfbb
000000a0: a737 113e 66fd ba3d b954 2ebe 5ad0 20be
000000b0: b84b 97bc a203 f53d 22e4 2abe 6c66 8d3d
000000c0: 807e 19bd 820f d53d e450 60bd a042 103d
000000d0: 2989 243e 1d36 233e 087d 98bc abb0 0f3e
000000e0: b7ea 163e 50dd 8f3c 2cc1 b1bd b4e9 09bd
000000f0: 7394 18be fb6f 33be 5310 023e 18fe b1bd
00000100: b8f3 753d 3927 243e 8689 b03d 3cfc 033d
00000110: 4a8f 993d dc33 68bd 4ede d83d 7037 203c
00000120: a0de 1abe c0cf 203c 721a e13d 8a5a e73d
00000130: bb8d 023e 819f 063e 38d4 01be 9068 31bc
00000140: 7227 ab3d 50c0 633c 08ae 363d e152 263e
00000150: 2176 293e a89e 74bd b694 e73d 425f 993d
00000160: 4e20 f0bd 5250 74bd 5f5c 313e 62c8 20be
00000170: 5a3f c93d f080 a63c 603a 32be d2c2 72bd
00000180: f4bf 0b3d 4a07 e23d 3335 0ebe 867f 11be
00000190: d226 13be 70f4 0fbc c604 ee3d 1c9e 56bd
000001a0: adc0 a2bd be9d 69bd d8bd fdbc b50b 0b3e
000001b0: 40b6 9f3c d4e8 333d 003c 43ba 8055 78bc
000001c0: 644e 8dbd 732d d5bd 38c0 07bd 705e 9fbd
000001d0: d0c6 88bc 40a8 17be ab3a 153e 129d 9a3d
000001e0: 1833 cd3c 8c2c 4bbd 12af 0ebe aa8a af3d
000001f0: 104a 22be 0e2b fe3d 3ae1 cb3d 5a27 b93d
00000200: dd86 20be 58ad e63c 8c21 9fbd 8270 69bd
00000210: 5c4f 6abd 4f43 a0bd 503e a5bc f665 bd3d
00000220: 9e88 d83d 6914 efbd 2612 25be 23ed 1c3e
00000230: bc18 16be 52bb fb3d 8b31 2f3e d882 96bd
00000240: c01e 6cbb 5546 203e 0c81 95bd 523c cf3d
00000250: 30da 593c 8774 0dbe c6c3 b8bd b411 483d
00000260: 2b4a 053e 20ca ee3b 2e02 29be c223 25be
00000270: 1e2f d53d a0a8 7d3c 6084 f1bb 60c3 fc3b
00000280: 2825 8dbd f8ff 1b3d 1bc0 113e 0672 2cbe
00000290: 6375 013e 9074 64bc 82ae aa3d 0f34 323e
000002a0: e5bf 31be a887 42bd 7edb b83d 80f3 273d
000002b0: 8abd 93bd 4a66 d63d e57e 173e 0040 cd37
000002c0: 00e7 81bd 0358 303e e077 7fbc eb1c 153e
000002d0: a869 943c 9dba 223e 50cb 873d 6228 a0bd
000002e0: cbd7 a1bd fb34 343e 78f6 8dbc 957e 0ebe
000002f0: 15a9 2abe fc20 b4bd 6418 3ebd e303 eebd
00000300: 3008 583d a654 bb3d 696e 27be 0843 c6bd
00000310: 657f 07be 4046 733c 294d 343e b773 86bd
00000320: 74b1 013d 0071 d5bd 3b2f 1bbe 0635 d6bd
00000330: 2f57 343e 78c3 bf3c 5ca5 17bd d757 e9bd
00000340: db29 223e 0ade 9a3d 9ff5 1f3e 4eb7 f93d
00000350: 30af 113c a0a5 e6bc 393c 03be 8c74 7e3d
00000360: e839 34bd 2486 1dbd 4a86 09be fe9f 87bd
00000370: c90b 283e e9b8 0f3e 0882 853d 80d0 f23a
00000380: 7f82 273e 5850 3dbd 3e78 b63d 7d69 343e
00000390: 50ee 7d3d a2d3 e33d a086 e8bd 5b8f 243e
000003a0: 9e53 fd3d 5b62 f6bd 9e47 01be 24cd 5c3d
000003b0: 0022 9f3c d66e b23d eee8 30be e061 6d3c
000003c0: 7b35 073e f8e3 be3c b787 2a3e 816f 283e
000003d0: e0c1 d73c 8aad e63d 651e dfbd ddf3 1b3e
000003e0: 8a10 08be ce34 c43d f829 b2bc 468d 83bd
000003f0: 23de 81bd e992 273e 501e a9bd c58c 273e

bias f4 [8]
0.048667073 -0.113207296 -0.102808364 -0.0243942 0.13563259 0.1381184 -0.0946936 -0.0042984337
00000000: 2057 473d 3ad9 e7bd 318d d2bd 58d6 c7bc
00000010: 45e3 0a3e e96e 0d3e b8ee c1bd e0d9 8cbb

weight f4 [8, 4, 2, 2]
0.21089119 -0.1106281 0.07306737 0.1546697 0.16426444 -0.034844816 -0.12408993 -0.03826356
-0.13781855 0.22483844 -0.10157949 -0.12405777 -0.11360526 -0.21716869 0.07049781 -0.02282682
-0.24167594 -0.07504234 -0.18460667 -0.2225421 -0.16379428 0.22422624 0.19817758 0.10090998
0.20631525 -0.22446427 0.13144103 -0.095181584 0.17771038 -0.1313051 0.23729616 -0.0646337
-0.199482 -0.015250474 0.19791609 -0.22541946 0.16328743 0.20048639 0.14024246 0.24507022
0.2177653 -0.13450545 -0.008714944 -0.14178285 0.07944995 0.14498526 -0.07333535 0.0045938194
-0.1493521 -0.24018285 0.1568357 -0.009520143 -0.11197677 -0.24116418 0.24708956 -0.18918684
0.24559587 -0.012214273 0.20187971 -0.16191754 -0.02694714 0.16874176 0.027107656 -0.11837846
0.11031252 -0.24592814 0.20133093 0.117771745 0.14384058 0.048150063 0.2479555 0.045509815
0.020560265 0.06858948 0.04625413 -0.041400045 0.16408926 -0.19490954 0.18850303 0.0742718
0.18775707 -0.035431474 -0.10798299 0.13193631 -0.11371744 -0.10671747 -0.18605733 -0.07443124
-0.0137063265 0.16468742 0.038620085 -0.049096763 0.18156672 -0.21294007 0.2336528 0.14759994
0.07862303 0.11204025 0.14574537 -0.057229996 0.07298672 -0.20589358 -0.2387923 0.16759813
-0.0067543685 -0.20431861 0.2445887 -0.24279493 0.08462727 0.16353488 -0.2138809 0.23362237
0.056684464 0.05131626 -0.18123916 0.10476038 -0.24154979 -0.061109215 -0.16990113 -0.115810156
0.21328238 0.014426291 0.12997144 0.22440311 -0.14536929 0.21866357 -0.022376299 0.14278632
00000000: dcf3 573e fc90 e2bd 58a4 953d bc61 1e3e
00000010: f034 283e 70b9 0ebd dc22 febd 40ba 1cbd
00000020: 4e20 0dbe 0c3c 663e e808 d0bd 0012 febd
00000030: e0a9 e8bd 7861 5ebe 2861 903d 50ff babc
00000040: e679 77be ccaf 99bd 8809 3dbe 14e2 63be
00000050: b0b9 27be 909b 653e 10ef 4a3e e4a9 ce3d
00000060: 4e44 533e f6d9 65be 7a98 063e 90ee c2bd
00000070: b6f9 353e d874 06be c4fd 723e ac5e 84bd
00000080: 0245 4cbe 20dd 79bc 84aa 4a3e 5cd4 66be
00000090: d234 273e 4e4c 4d3e b89b 0f3e b0f3 7a3e
000000a0: defd 5e3e ccbb 09be 20c9 0ebc 862f 11be
000000b0: a8b6 a23d 0477 143e d830 96bd c087 963b
000000c0: c2ef 18be 7ef2 75be 8a99 203e 60fa 1bbc
000000d0: 1454 e5bd bef3 76be 0c05 7d3e 32ba 41be
000000e0: 7c7d 7b3e 601e 48bc 8eb9 4e3e b6cd 25be
000000f0: 40c0 dcbc a4ca 2c3e e010 de3c 6870 f2bd
00000100: 88eb e13d 96d4 7bbe b229 4e3e 5032 f13d
00000110: f24a 133e 0039 453d 0ce8 7d3e 8068 3a3d
00000120: 006e a83c a478 8c3d f874 3d3d 1893 29bd
00000130: 0407 283e 5e96 47be f006 413e d01b 983d
00000140: 6443 403e 9820 11bd 3026 ddbd 501a 073e
00000150: b0e4 e8bd b08e dabd d085 3ebe 686f 98bd
00000160: 8090 60bc d2a3 283e 1830 1e3d b019 49bd
00000170: a0ec 393e f60c 5abe ae42 6f3e 7024 173e
00000180: 1c05 a13d 5c75 e53d 463e 153e 006a 6abd
00000190: 107a 953d c4d5 52be f885 74be d89e 2b3e
000001a0: c053 ddbb e638 51be 7675 7a3e 3c9f 78be
000001b0: 1051 ad3d b075 273e 9803 5bbe b43a 6f3e
000001c0: f82d 683d 0031 523d c296 39be 9c8c d63d
000001d0: d458 77be a84d 7abd 90fa 2dbe e02d edbd
000001e0: b266 5a3e 405c 6c3c 3c17 053e eec9 653e
000001f0: b0db 14be 58e9 5f3e 804e b7bc 9436 123e

bias f4 [4]
-0.22093153 -0.20794049 0.06270772 0.17655525
00000000: e03b 62be 5aee 54be e86c 803d e6ca 343e

weight f4 [4, 2, 2, 2]
-0.18308304 0.032753795 -0.20811093 0.01365304 0.292473 -0.24783564 -0.059556812 -0.12809548
-0.25239226 -0.07514468 -0.15801452 -0.09973857 0.2950044 -0.044413835 0.22198775 0.06567258
-0.11173387 -0.08431843 0.12947717 -0.34375387 0.19200209 0.13496014 0.19312766 -0.3317868
-0.11890705 0.08197579 0.06049329 0.2541931 0.19232288 -0.25949103 0.26602903 0.20651373
00000000: 1f7a 3bbe d828 063d 081b 55be 00b1 5f3c
00000010: 05bf 953e a0c8 7dbe d8f1 73bd 762b 03be
00000020: 8f39 81be 74e5 99bd 8fce 21be bc43 ccbd
00000030: d10a 973e 48eb 35bd c250 633e 587f 863d
00000040: bad4 e4bd 24af acbd aa95 043e 8200 b0be
00000050: 329c 443e fe32 0a3e 42c3 453e f6df a9be
00000060: 8a85 f3bd ece2 a73d d0c7 773d 9925 823e
00000070: 4af0 443e 02dc 84be f534 883e 5678 533e

bias f4 [2]
-0.31401432 0.16047218
00000000: 7cc6 a0be d252 243e

weight f4 [2, 1, 2, 2]
-0.08641821 0.00033921003 0.41831195 -0.2703262 0.09544152 0.027277887 -0.32133573 0.2771669
00000000: 08fc b0bd 00d8 b139 fc2c d63e 3268 8abe
00000010: d876 c33d e075 df3c 1e86 a4be d2e8 8d3e

weight f4 [1, 1047]
0.0050945906 -0.0903612 -0.014286305 0.0038779073 -0.08759998 0.08716654 -0.060508996 -0.07167161
0.0011747687 -0.06052525 -0.0024335675 0.011719415 -0.033055797 -0.08270323 -0.10757491 -0.02367685
0.003858654 0.028810216 -0.15156293 -0.01868388 0.0072159786 -0.056191385 0.010360069 0.055486083
9.1947e-05 0.03946621 0.06777934 0.040552847 0.061673604 -0.07540064 -0.00027623016 -0.10923148
-0.084480315 -0.021057988 0.0054629357 -0.093723595 -0.10589634 -0.0013426122 0.09245089 0.19217438
0.06626839 0.10388994 0.07483655 0.0750302 -0.0146618085 0.044676848 0.068063535 0.08737184
0.14364724 0.11854156 0.11803053 0.0400342 0.11044493 0.040816143 -0.03751801 0.05647699
0.019052166 -0.029494813 0.01924854 -0.07411471 0.08520207 -0.03358428 -0.08831799 -0.043733127
0.006597292 -0.020051586 -0.02581707 -0.17572452 -0.06698596 -0.022578813 -0.019388493 -0.008052527
0.06493809 0.08435389 0.08036836 0.05266742 0.13587347 0.12166962 0.014268282 0.026558865
0.059748568 0.1471803 0.031467587 0.03222897 0.041763924 0.09781753 0.12917054 0.12839508
0.005129632 0.013487048 -0.04005131 -0.085169576 -0.01193361 -0.055589106 0.01826021 -0.13707522
0.0042994414 -0.02892242 -0.06540508 -0.01645721 -0.10939993 -0.07411553 -0.0038324958 0.03175756
0.00064700627 0.09254198 0.026479319 0.054586668 0.0068829437 0.1185945 0.054089427 0.04362118
0.07496713 0.04021581 0.020457499 0.08754398 0.06870525 0.08455189 0.065408505 -0.028210029
-0.02126022 -0.053671546 0.011998927 0.036369048 -0.007242224 -0.1246459 -0.017274546 -0.0037621853
-0.07716201 -0.09866094 -0.08617479 -0.08219299 -0.07140326 -0.018113911 0.15081114 0.0022461899
0.009370166 0.06994208 0.05452635 0.069815844 0.023442525 0.044679433 0.045448754 0.15396376
0.04642058 0.086441696 0.08923602 0.0714548 0.07088601 0.11315557 0.09945042 -0.106330186
0.090671144 0.002411494 -0.03461413 0.011806027 -0.03986492 -0.03513188 -0.0031867905 -0.04934796
-0.0911721 -0.08507091 -0.12171061 0.065786265 0.09556694 0.11347465 0.09381028 0.085474305
0.044967327 0.06736312 0.027113877 -0.022819635 0.15579206 0.11254978 0.05459191 0.11579266
0.047031753 0.034766342 0.04685682 0.061485916 0.026926864 0.09464596 -0.014041266 0.032321893
0.061310954 0.05699482 -0.059750542 0.004174881 -0.007277669 -0.0636321 -0.08070586 -0.04393385
-0.040978897 -0.02475022 -0.053689618 0.0029478222 0.09107454 0.090495266 -0.010621211 0.088844314
0.013129043 0.05848224 0.11513262 0.03980948 0.0854189 0.16313915 0.031178322 0.058084853
0.0748182 0.028813016 0.10381497 -0.035978533 0.10942477 0.0059183296 0.06840521 0.062295273
-0.0342351 -0.051382437 -0.018365588 -0.052871075 0.01673541 0.00095003715 -0.03863603 0.11784431
0.05197468 0.0049426155 0.020279933 0.05634503 0.096139684 0.048829008 0.005573338 0.048580457
0.09332886 0.026151445 0.043493725 0.021129187 0.09038257 0.06520432 0.11053092 -0.027834293
0.080063686 -0.020322092 0.13599084 0.09963761 0.051191695 0.04313732 0.034383297 0.006951694
0.06378704 -0.013084163 -0.06558616 0.037513133 -0.022576183 -0.04902671 -0.009420299 0.077347554
00000000: 86f0 a63b 4b0f b9bd 1b11 6abc 7d24 7e3b
00000010: 9e67 b3bd 5f84 b23d 48d8 77bd 91c8 92bd
00000020: b2fa 993a 53e9 77bd 7d7c 1fbb ca02 403c
00000030: 8465 07bd 5060 a9bd 3c50 dcbd f4f5 c1bc
00000040: 79e1 7c3b 6703 ec3c 5033 1bbe f00e 99bc
00000050: 0474 ec3b f028 66bd 47bd 293c 6045 633d
00000060: abd3 c038 52a7 213d e5cf 8a3d be1a 263d
00000070: 769d 7c3d a76b 9abd fcd2 90b9 c1b4 dfbd
00000080: 0404 adbd cd81 acbc 6d02 b33b 28f2 bfbd
00000090: 2ee0 d8bd 97fa afba e456 bd3d 5cc9 443e
000000a0: b9b7 873d 40c4 d43d e843 993d 6fa9 993d
000000b0: 1538 70bc 12ff 363d e564 8b3d 02f0 b23d
000000c0: 4318 133e ebc5 f23d feb9 f13d e7fa 233d
000000d0: f430 e23d d42e 273d 7cac 19bd 6b54 673d
000000e0: 4a13 9c3c 1b9f f1bc 1daf 9d3c 74c9 97bd
000000f0: 6c7e ae3d ac8f 09bd 10e0 b4bd 8221 33bd
00000100: 192e d83b 3943 a4bc 527e d3bc 21f1 33be
00000110: ef2f 89bd 34f7 b8bc 9ed4 9ebc bfee 03bc
00000120: 43fe 843d bbc1 ac3d 2b98 a43d cbb9 573d
00000130: 6a22 0b3e ec2d f93d 83c5 693c fa91 d93c
00000140: eaba 743d 6fb6 163e 28e4 003d 8602 043d
00000150: a610 2b3d 8f54 c83d 4845 043e 007a 033e
00000160: 7916 a83b c8f8 5c3c d80c 24bd 636d aebd
00000170: 3085 43bc 67b1 63bd 7096 953c 725d 0cbe
00000180: 54e2 8c3b b6ee ecbc 19f3 85bd 45d1 86bc
00000190: 120d e0bd e2c9 97bd 9c2a 7bbb 3714 023d
000001a0: db9b 293a a686 bd3d 28eb d83c 4596 5f3d
000001b0: 518a e13b ace1 f23d e08c 5d3d 1fac 323d
000001c0: 5e88 993d 55b9 243d 7c96 a73c 424a b33d
000001d0: 57b5 8c3d 8b29 ad3d e5f4 853d b818 e7bc
000001e0: ea29 aebc b2d6 5bbd 2697 443c b6f7 143d
000001f0: 2e50 edbb 5a46 ffbd 5983 8dbc ff8e 76bb
00000200: 1e07 9ebd bf0e cabd 697c b0bd cc54 a8bd
00000210: df3b 92bd a063 94bc 3c6e 1a3e d034 133b
00000220: 5385 193c cb3d 8f3d 0657 5f3d 9cfb 8e3d
00000230: 8a0a c03c c801 373d 7928 3a3d ada8 1d3e
00000240: 8223 3e3d 5808 b13d 60c1 b63d e556 923d
00000250: af2c 913d 1cbe e73d a9ac cb3d a4c3 d9bd
00000260: cbb1 b93d 280a 1e3b 8cc7 0dbd 116e 413c
00000270: 6649 23bd 72e6 0fbd 79d9 50bb 1621 4abd
00000280: 70b8 babd a839 aebd 6a43 f9bd f3ba 863d
00000290: 9ab8 c33d 6665 e83d 9b1f c03d 270d af3d
000002a0: a92f 383d adf5 893d ec1d de3c 3ef0 babc
000002b0: f487 1f3e 8080 e63d c49b 5f3d b424 ed3d
000002c0: 5ea4 403d 2767 0e3d f0ec 3f3d a8d8 7b3d
000002d0: ba95 dc3c bed5 c13d 570d 66bc f663 043d
000002e0: 3221 7b3d 6673 693d fcbc 74bd 71cd 883b
000002f0: 8379 eebb 8c51 82bd 1d49 a5bd fbf3 33bd
00000300: 7dd9 27bd f9c0 cabc a5e9 5bbd 4030 413b
00000310: 4a85 ba3d 9555 b93d 9604 2ebc 02f4 b53d
00000320: 331b 573c 138b 6f3d a7ca eb3d 440f 233d
00000330: 1bf0 ae3d f30d 273e ae69 ff3c 62ea 6d3d
00000340: 493a 993d 4609 ec3c f19c d43d 3a5e 13bd
00000350: 181a e03d 8cee c13b 0818 8c3d 5429 7f3d
00000360: 1b3a 0cbd 6476 52bd 6e73 96bc 578f 58bd
00000370: b318 893c ea0b 793a d040 1ebd 5c58 f13d
00000380: 67e3 543d aaf5 a13b 1a22 a63c 0cca 663d
00000390: e2e4 c43d ed00 483d 8ca0 b63b 4dfc 463d
000003a0: 3423 bf3d 8e3b d63c 7a26 323d 1e17 ad3c
000003b0: 7f1a b93d d889 853d 095e e23d be04 e4bc
000003c0: 6ef8 a33d 847a a6bc 2f41 0b3e ce0e cc3d
000003d0: 62ae 513d c2b0 303d 80d5 0c3d 09cb e33b
000003e0: c8a2 823d f55e 56bc 0952 86bd 5fa7 193d
000003f0: b0f1 b8bc 3bd0 48bd 9957 1abc 6568 9e3d
